adapter_weights/adapter_qa_en-hi_mbert_15/pytorch_model_head.bin (torch, 7143 bytes, 2 tensors)

qa_outputs.weight f4 [2, 768]
0	0x3d228ade	0.039683215
1	0xbcfc0115	-0.030762235
2	0x3cc284da	0.02374499
3	0xbcec142e	-0.028818216
4	0xbb9d93dd	-0.0048088864
5	0xbd17928a	-0.037004985
6	0xbd18527f	-0.03718805
7	0xbcd248e5	-0.025669524
8	0x3d399da3	0.04531635
9	0x3cc913f7	0.024545653
10	0x3c5a742f	0.013333364
11	0xbc420ebd	-0.011844334
12	0x3bbd4baa	0.005776842
13	0xbcd5e130	-0.026108354
14	0xbd20e01c	-0.039276227
15	0x3b0f582a	0.0021872618
16	0x3c4bd3e1	0.012440653
17	0xbd0d6a14	-0.034524992
18	0xbd358c5e	-0.044323318
19	0x3d802ce8	0.06258565
20	0x3cf850cf	0.03031197
21	0xbc942b42	-0.018087033
22	0x3d38e9de	0.045144908
23	0xbc1f3ce2	-0.009719105
24	0x3cf877ff	0.030330656
25	0xbc110b6a	-0.008852819
26	0x3b7ee4c8	0.0038893688
27	0x3b081219	0.002076274
28	0x3d0c4e8d	0.0342546
29	0xbd2c061e	-0.04199802
30	0x3bdfb3fc	0.0068268757
31	0x3c8e1c7e	0.01734757
32	0xbce73f20	-0.028228343
33	0xbca16b58	-0.019704506
34	0x3c53b54f	0.012921645
35	0x3d88dda6	0.06682901
36	0x3c131168	0.008976318
37	0xbd6a94bc	-0.05727075
38	0x3c969964	0.01838369
39	0xbad312b6	-0.0016103599
40	0xbd37919a	-0.04481659
41	0xbda37937	-0.07982104
42	0x3d3020d5	0.04300006
43	0x3c8d1657	0.017222567
44	0xbcab7b41	-0.020932795
45	0x3d1b601e	0.03793346
46	0x3c9d7002	0.019218449
47	0x3c260409	0.010132798
48	0xbbb0a22c	-0.005390426
49	0x3c86ea10	0.016469032
50	0xbd789b41	-0.060694937
51	0xbb5c2d96	-0.0033596507
52	0x3cc6eb73	0.024282193
53	0x3d3334f5	0.043751676
54	0x3d36937f	0.044574257
55	0x3c4deb08	0.012568243
56	0x3c838675	0.016055325
57	0xbc972c57	-0.01845376
58	0x3d3e9751	0.046531025
59	0xbbce220f	-0.006290681
60	0x3c679664	0.014134977
61	0xbd95d315	-0.07315651
62	0xbc228e84	-0.009921674
63	0xbd2d8485	-0.04236271
64	0x3cee3273	0.02907679
65	0xbc53c1c5	-0.012924616
66	0xbcfe1e8a	-0.031020422
67	0x3c27b6ff	0.010236501
68	0x3c87c969	0.016575532
69	0x3ca6a3cb	0.020341774
70	0xbd6f1e74	-0.05837865
71	0x3bfe8b43	0.007768066
72	0xbc69aad1	-0.014261917
73	0xbcc10975	-0.02356408
74	0x3da0ac7c	0.07845399
75	0xbca748db	-0.020420482
76	0xbcc8f65f	-0.024531541
77	0xbda5d44d	-0.08097134
78	0x3bb6564a	0.0055644857
79	0xbc5f8680	-0.013642907
80	0xbc7144f9	-0.014725917
81	0x3d8fe3bc	0.07025859
82	0xbbd1c241	-0.0064013307
83	0x3c99a12b	0.018753609
84	0xbb56f929	-0.003280232
85	0xbd864e47	-0.06557899
86	0x3cc331f0	0.023827523
87	0xbd48c729	-0.04901806
88	0xbac0e864	-0.0014717695
89	0x3d7c3f25	0.061583657
90	0xbd04c04f	-0.032409962
91	0xbca304cc	-0.019899748
92	0xbca436d5	-0.020045677
93	0xbcfc8ff8	-0.030830368
94	0x3c57022e	0.013123078
95	0xbd5da421	-0.054111604
96	0xbcb91a30	-0.022595495
97	0xbb7db07b	-0.0038709927
98	0x3d7aebe6	0.061260127
99	0xbc911b0c	-0.017713092
100	0x3cab31fd	0.02089786
101	0xbbb88b25	-0.0056318217
102	0x3c6e66ac	0.014550846
103	0x3d21b959	0.039483402
104	0xbc96723c	-0.018365018
105	0x3ca424b1	0.020037027
106	0xbc8859be	-0.016644355
107	0x3d235011	0.03987128
108	0x3d0830a1	0.0332495
109	0x3d60a1f9	0.05484197
110	0x3c3ee2ff	0.0116508
111	0xbd2c6357	-0.042086925
112	0x3d578588	0.05261758
113	0xbc598251	-0.013275699
114	0x3d35c49b	0.04437695
115	0xbd0e24ea	-0.034703173
116	0x3cc2e638	0.023791417
117	0x3c11014a	0.008850405
118	0x3daf737f	0.08566951
119	0xbd075439	-0.033039305
120	0xbd1eb5fb	-0.03874777
121	0x3c8375ee	0.016047444
122	0xbd2f024a	-0.042726792
123	0x3cdaa905	0.026691923
124	0x3c221b47	0.009894199
125	0xbd455019	-0.04817209
126	0xbceed1ce	-0.029152777
127	0x3aacb1ae	0.0013175511
128	0x3b920e19	0.004457247
129	0xba99d639	-0.0011736817
130	0xbda212b5	-0.07913724
131	0xbc4e1da6	-0.012580311
132	0x3bb003af	0.005371533
133	0xb6cc8c26	-6.095989e-06
134	0xbc02bb10	-0.0079791695
135	0x3d62c3c4	0.055362478
136	0x3d6ba72c	0.057532474
137	0xbb9adfe8	-0.0047263987
138	0x3d0281c8	0.03186205
139	0x3d007b33	0.031367492
140	0xbcd65330	-0.026162714
141	0xbcc50e59	-0.024054693
142	0xbcd6ff01	-0.026244642
143	0x3d5cf340	0.05394292
144	0xbcd15ef5	-0.025557974
145	0x3d022911	0.031777445
146	0xbc78c82a	-0.015184442
147	0xbc891ed6	-0.016738337
148	0xbc264785	-0.0101488875
149	0x3ceb480a	0.028720874
150	0x3c97f773	0.01855061
151	0xbcb1882b	-0.021671375
152	0x3d3c75df	0.046010848
153	0xbc3ad6ff	-0.011403798
154	0x3a6ad4c0	0.0008958094
155	0x3b124ebf	0.0022324768
156	0x3cb85cba	0.022505153
157	0xbd25257b	-0.040318947
158	0xba609745	-0.0008567463
159	0x3c25e2b6	0.010124853
160	0xbd8c0ef3	-0.06838789
161	0x3d395e1d	0.04525577
162	0xbceaf47e	-0.028681036
163	0xbaff26ec	-0.0019466556
164	0xbbd1fbe5	-0.006408202
165	0xbd37bc20	-0.044857144
166	0xbca9a4a5	-0.020708391
167	0x3ad7bfa1	0.0016460308
168	0xbc72414d	-0.014786077
169	0x3d1dedc9	0.038556848
170	0x3d135568	0.03597012
171	0xbc0e90fa	-0.008701557
172	0xbb4bf7e5	-0.0031123098
173	0x3c884654	0.016635098
174	0xbcd24a2a	-0.02567013
175	0xbd332247	-0.04373386
176	0xbd7a46f4	-0.061102822
177	0x3d4adc03	0.049526226
178	0xbc4092e0	-0.011753768
179	0xbd255919	-0.040368173
180	0x37cd440f	2.4469597e-05
181	0x3d8ae01a	0.06781025
182	0xbcab4253	-0.02090565
183	0x3a7a0764	0.00095378445
184	0xbd55532b	-0.05208127
185	0x3b130c11	0.0022437612
186	0x3dbc2a77	0.09187787
187	0xbc903013	-0.017601049
188	0xbd9f1fa6	-0.07769708
189	0x3b42d396	0.0029728166
190	0x3cd37b08	0.025815502
191	0x3c55901b	0.013034846
192	0x3c987df7	0.018614752
193	0x3bf6d9bf	0.0075332816
194	0xbd37a007	-0.04483035
195	0x3d4f11f6	0.05055424
196	0xbca899be	-0.020581122
197	0x3d41351e	0.047169797
198	0x3d4fccce	0.050732426
199	0x3d19ced2	0.037550755
200	0x3d4118e9	0.047142897
201	0xbcffd9ed	-0.031231845
202	0xbd18f489	-0.037342582
203	0x3c46902f	0.012119337
204	0x3d8cf551	0.06882728
205	0x3b0ca51f	0.0021460725
206	0x3cec8119	0.028870152
207	0x3c507085	0.012722139
208	0xbd82ed64	-0.06392935
209	0x3d2c66b0	0.042090118
210	0x3d719525	0.058980126
211	0xbcaa40fb	-0.020782938
212	0x3c9dcd3d	0.019262904
213	0x3cebb6b3	0.028773641
214	0xbcd61107	-0.026131166
215	0xbc4fe6f4	-0.012689341
216	0xbd1eb211	-0.038744036
217	0xbd92a6b6	-0.07160704
218	0x3d5ad05c	0.053421363
219	0x3d521a93	0.051294874
220	0xbc8293fa	-0.015939701
221	0xbc6bdee4	-0.014396403
222	0xbcf219a1	-0.029553236
223	0xbc5c7f64	-0.013458107
224	0xbd45775e	-0.04820954
225	0x3c5de6a4	0.013543759
226	0x3c0cd80b	0.0085964305
227	0xbbf4094a	-0.0074473964
228	0xbc906f54	-0.01763121
229	0xbcfdd872	-0.030986998
230	0xbcebbc16	-0.02877621
231	0xbb70d25e	-0.0036746482
232	0x3d542cd9	0.051800583
233	0xbd58c138	-0.052918643
234	0xbbea3f5b	-0.007148666
235	0x3c488be9	0.012240388
236	0xbd7f92fe	-0.062396042
237	0x3d8afbe9	0.06786329
238	0x3cc81c40	0.024427533
239	0xbd0536f2	-0.032523103
240	0x3b0fee0e	0.002196196
241	0x3bd1bd69	0.0064007533
242	0xbb0bb06c	-0.0021314872
243	0x3b98de39	0.004665163
244	0x3cbf2302	0.023332123
245	0x3d192ec7	0.037398126
246	0xbb0b7431	-0.0021278972
247	0x3d554669	0.0520691
248	0x3d31cca3	0.043408047
249	0xbb856f7b	-0.0040721274
250	0xbcb457c8	-0.022014514
251	0xbc6de85b	-0.01452073
252	0x3b2abb4d	0.0026051581
253	0xbc0cb7c4	-0.008588735
254	0xbd1856cc	-0.03719215
255	0xba21adb3	-0.0006167546

qa_outputs.bias f4 [2]
0	0xbedf1fb3	-0.43578872
1	0xbee18236	-0.44044656
