adapter_weights/adapter_qa_en-ro_xlm_15/pytorch_model_head.bin (torch, 7143 bytes, 2 tensors)

qa_outputs.weight f4 [2, 768]
0.010768177 0.011783948 -0.0019398207 -0.038107943 0.009837574 -0.042201314 0.02327201 0.034704223
-0.016393637 0.0627484 0.0154984705 -0.081967756 -0.014343801 0.049626727 0.078815274 0.03907922
-0.064260565 -0.033602115 0.029239766 0.024802152 -0.03553104 -0.013803392 -0.051750954 0.0024153013
-0.01099877 -0.010195206 -0.05350009 -0.018222407 0.022727646 0.04561038 -0.021906376 0.0655837
-0.04905614 -0.059866738 -0.07873238 0.029355718 0.047922812 -0.059500188 -0.06071847 0.0109092975
0.036487143 -0.021260394 -0.036689233 -0.028506339 0.031067528 0.020534797 0.05421245 0.07120715
0.020844387 0.010211804 0.014450253 -0.029152026 -0.08569362 -0.015961677 0.0068683005 -0.0047413474
-0.07246284 -0.017615762 -0.01494052 0.020505765 0.06441855 -0.022072848 0.057054184 0.04707542
0.05135729 0.023670139 0.05356035 -0.010153242 0.0016556412 0.047234707 0.010299483 -0.019769974
-0.016565237 -0.010273785 0.017869432 -0.007205567 -0.07111337 0.015891068 0.06450595 -0.037160892
-0.009197659 -0.04443244 0.06487632 -0.013260605 -0.026659755 -0.0016062479 0.038021524 -0.081739195
0.007448945 0.055291437 -0.030957319 -0.0006907109 -0.0048865 -0.016402416 -0.031120006 0.06415603
-0.0150614185 0.0028795598 -0.049414173 -0.0049238666 0.00023633035 -0.050261963 0.049635395 -0.0540628
-0.0018860208 -0.021416936 0.033014566 0.025395878 0.013661566 -0.05803651 0.055402905 0.021310776
-0.018942205 0.049243465 0.019707518 0.016814545 0.010578404 -0.053726297 -0.04877864 0.078525946
-0.022553839 -0.020011568 0.017333185 -0.00052384555 0.025828945 0.031995654 -0.03746286 -0.010494905
-0.0039705643 0.084287964 0.03496055 0.023706589 -0.029207228 0.028166631 -0.04010994 -0.029026287
0.0789632 -0.0067282836 -0.01739814 0.075206086 -0.026963923 0.04245181 0.07323172 -0.08732224
-0.023384605 -0.020487204 -0.0067690113 0.025756523 -0.048247993 -0.00067057804 -0.030060293 0.008340929
-0.011110719 0.031427886 0.08300195 -0.014985948 -0.05629216 0.04224058 -0.022990476 0.017514525
0.011672966 0.0074787857 -0.040960163 -0.020738095 0.05634417 0.06410066 -0.038732342 0.017638804
-0.036774103 -0.010643132 0.028522085 -0.008472698 -0.035250094 -0.015894474 0.0021452087 -0.002646054
-0.05346798 0.05713621 0.012441017 -0.035809886 -0.029718911 -0.00016829469 -0.04142094 -0.009387821
0.027662124 0.006214166 -0.030913763 0.004592448 0.0026366164 0.05495475 -0.017596554 -0.050777003
-0.003933914 0.001986747 -0.047613725 -0.0058268 -0.0087122815 -0.007965728 -0.0015764766 -0.03815952
0.029031176 -0.010189278 0.08379257 0.068412475 -0.0018985044 0.01983889 0.031033447 0.0019841723
0.012368222 -0.011766149 0.06528643 0.021447225 -0.017663086 0.03842932 -0.012784322 0.012577356
0.00057144277 0.0712312 -0.006526933 -0.023367217 0.054961354 0.0022402694 0.05286863 0.052212298
-0.0053759054 -0.047500595 0.012181149 -0.006877598 -0.014200117 -0.0060153613 -0.0374071 0.036731575
0.068058185 -0.037587967 -0.0221433 -0.04931264 -0.05005408 -0.037609663 -0.04396148 -0.00088284526
0.007549391 -1.5125157e-05 0.049702328 0.014080233 -0.070864365 0.054337587 -0.059470512 0.03428604
-0.000561471 -0.0042143012 -0.052323412 -0.02582887 0.01868375 0.013041344 -0.05190467 0.02494832
00000000: 026d 303c 7611 413c 9541 feba 1317 1cbd
00000010: c72d 213c 49db 2cbd f1a4 be3c 0426 0e3d
00000020: f34b 86bc 3c82 803d 4ced 7d3c b6de a7bd
00000030: 4302 6bbc 6545 4b3d e769 a13d 8811 203d
00000040: 0b9b 83bd 5fa2 09bd 3c88 ef3c e22d cb3c
00000050: ff88 11bd 9f27 62bc cff8 53bd 084a 1e3b
00000060: 2f34 34bc cb09 27bc e922 5bbd 2847 95bc
00000070: 542f ba3c f3d1 3a3d 0075 b3bc bf50 863d
00000080: 17ef 48bd d336 75bd 713e a1bd 677b f03c
00000090: b64a 443d 78b6 73bd eeb3 78bd e9bc 323c
000000a0: 8b73 153d 472a aebc 7347 16bd 2086 e9bc
000000b0: 5481 fe3c 9738 a83c e00d 5e3d 0ed5 913d
000000c0: d9c1 aa3c 694f 273c c1c0 6c3c 3bd0 eebc
000000d0: 2380 afbd 10c2 82bc 7b0f e13b 4e5d 9bbb
000000e0: 6667 94bd ee4e 90bc 15c9 74bc b5fb a73c
000000f0: dfed 833d 1ed2 b4bc a6b1 693d 28d2 403d
00000100: 065c 523d e1e7 c13c 1962 5b3d c959 26bc
00000110: 1a02 d93a 2e79 413d 2abf 283c a4f4 a1bc
00000120: d2b3 87bc 6153 28bc ea62 923c ad1c ecbb
00000130: e3a3 91bd fc2d 823c b21b 843d 0536 18bd
00000140: c7b1 16bc cafe 35bd e0dd 843d 0243 59bc
00000150: 8f65 dabc bc88 d2ba 75bc 1b3d e166 a7bd
00000160: 4816 f43b 4679 623d 349a fdbc d310 35ba
00000170: ef1e a0bb 5c5e 86bc 62ef febc 3d64 833d
00000180: 2bc4 76bc ffb6 3c3b 8466 4abd 6358 a1bb
00000190: 72cf 7739 7ddf 4dbd 7c4e 4b3d f470 5dbd
000001a0: 5b34 f7ba 9272 afbc 483a 073d 040b d03c
000001b0: c3d4 5f3c b1b7 6dbd 28ee 623d f093 ae3c
000001c0: af2c 9bbc 84b3 493d a971 a13c a8be 893c
000001d0: 0b51 2d3c 1b10 5cbd 1ccc 47bd 36d2 a03d
000001e0: d4c2 b8bc 4def a3bc 53fe 8d3c ae52 09ba
000001f0: 3997 d33c e00d 033d a872 19bd d2f2 2bbc
00000200: 821b 82bb 2b9f ac3d cb32 0f3d 5234 c23c
00000210: ff43 efbc b5bd e63c 524a 24bd 89c8 edbc
00000220: 75b7 a13d ef78 dcbb 8b86 8ebc a605 9a3d
00000230: 72e3 dcbc f3e1 2d3d 83fa 953d 01d6 b2bd
00000240: 1291 bfbc c8d4 a7bc 95ce ddbb 58ff d23c
00000250: b09f 45bd bbc9 2fba 0141 f6bc 64a8 083c
00000260: bc09 36bc 87ba 003d edfc a93d 9f87 75bc
00000270: 9c92 66bd 7504 2d3d 8656 bcbc 9f7a 8f3c
00000280: f83f 3f3c 9a10 f53b d8c5 27bd f0e2 a9bc
00000290: 25c9 663d 3547 833d cea5 1ebd 417f 903c
000002a0: 71a0 16bd 8860 2ebc 26a7 e93c 12d1 0abc
000002b0: 6762 10bd 2135 82bc a196 0c3b 6b69 2dbb
000002c0: 3e01 5bbd a907 6a3d 68d5 4b3c 63ad 12bd
000002d0: 1375 f3bc 4378 30b9 01a9 29bd 60cf 19bc
000002e0: ae9b e23c 34a0 cb3b dc3e fdbc 3f7c 963b
000002f0: 15cb 2c3b 3b18 613d a626 90bc 8cfb 4fbd
00000300: 10e8 80bb 1534 023b 9c06 43bd beee bebb
00000310: f5bd 0ebc af82 02bc c7a1 ceba 284d 1cbd
00000320: cad2 ed3c eef0 26bc 709b ab3d d71b 8c3d
00000330: 3dd7 f8ba 2b85 a23c db39 fe3c e308 023b
00000340: 15a4 4a3c cec6 40bc e4b4 853d 17b2 af3c
00000350: 2db2 90bc 1068 1d3d 5575 51bc 4111 4e3c
00000360: e0cc 153a aae1 913d e2df d5bb 9b6c bfbc
00000370: 281f 613d 7cd1 123b c78c 583d 90dc 553d
00000380: 5d28 b0bb fc8f 42bd 7193 473c 795d e1bb
00000390: 9ca7 68bc 821c c5bb 3038 19bd d973 163d
000003a0: 1762 8b3d d7f5 19bd de65 b5bc 0dfc 49bd
000003b0: 8205 4dbd 970c 1abd f410 34bd be6e 67ba
000003c0: e260 f73b 0ec2 7db7 ab94 4b3d c7b0 663c
000003d0: 5621 91bd 1791 5e3d 5a97 73bd 856f 0c3d
000003e0: ae2f 13ba 1f18 8abb 1351 56bd 1197 d3bc
000003f0: aa0e 993c 5cab 553c fe99 54bd 6b60 cc3c

qa_outputs.bias f4 [2]
-0.36090648 -0.3913771
00000000: bcc8 b8be 9462 c8be
