adapter_weights/adapter_qa_en-hi_xlm_15/pytorch_model_head.bin (torch, 7143 bytes, 2 tensors)

qa_outputs.weight f4 [2, 768]
000000 7a dc 17 3c e7 32 f9 3b a8 90 99 ba 0d 3f 17 bd
       0.009268874 0.007604945 -0.0011716085 -0.036925364
000010 60 12 15 3c f6 e1 26 bd 09 77 ae 3c 83 46 0e 3d
       0.009098619 -0.040742837 0.021296995 0.034735214
000020 1d bd a1 bc c0 3f 7c 3d b3 6a 45 3c c4 7d a7 bd
       -0.019743497 0.061584234 0.012049365 -0.08178285
000030 a3 15 5d bc 16 20 45 3d f0 69 9d 3d 98 0c 1f 3d
       -0.013493928 0.048126303 0.076862216 0.03883037
000040 32 85 7f bd 77 a1 09 bd e1 f4 00 3d dd 43 c0 3c
       -0.062382884 -0.03360125 0.031483535 0.02346986
000050 0f 9a 0d bd ed 18 85 bc 55 53 58 bd 27 de 90 3b
       -0.03457075 -0.016247237 -0.052813847 0.004421014
000060 7e eb 3a bc fe 0a 24 bc f1 9e 5b bd b3 a6 a6 bc
       -0.011408685 -0.010012386 -0.053618375 -0.02034316
000070 ee b1 bf 3c 3e 22 34 3d 81 5a 85 bc e4 b9 87 3d
       0.023400273 0.04397797 -0.016278507 0.06627253
000080 83 4f 56 bd 1d d8 75 bd 57 5b a0 bd 43 bf dd 3c
       -0.052321922 -0.060020555 -0.07829922 0.02706874
000090 6f 2c 35 3d fd 50 77 bd af 14 70 bd f4 58 0e 3c
       0.04423183 -0.06037997 -0.058613475 0.0086882
0000a0 a0 9a 1d 3d b2 d7 a2 bc ca b8 1f bd 28 c8 c0 bc
       0.03847754 -0.019878242 -0.038994588 -0.023532942
0000b0 92 51 ff 3c 2a 56 b1 3c f0 fc 5c 3d 60 e1 8d 3d
       0.031166825 0.021647532 0.053952157 0.069277525
0000c0 86 40 ad 3c 42 93 12 3c be 12 44 3c 72 66 fc bc
       0.021148931 0.008946242 0.011967359 -0.030810568
0000d0 25 df ad bd c2 4a 86 bc ed d0 93 3b 30 b4 21 39
       -0.08489827 -0.01639307 0.00451099 0.00015421282
0000e0 a6 94 9a bd bb 6b 90 bc 1b b7 8d bc 1b 6a ce 3c
       -0.07547884 -0.017629495 -0.017299226 0.02519708
0000f0 da 0f 7c 3d 77 12 cc bc 59 ee 6d 3d ff 87 49 3d
       0.061538555 -0.024911148 0.058088634 0.04920196
000100 79 39 4c 3d 46 9b d8 3c 24 6e 49 3d 55 9f 43 bc
       0.049859498 0.026441228 0.049177304 -0.011939843
000110 fe 74 c2 3a cf 45 4b 3d 99 f0 45 3c 1a ff ac bc
       0.0014835892 0.04962712 0.012081289 -0.021117736
000120 81 2a ad bc 9d 5c 37 bc 54 9f 40 3c f2 8b f8 bb
       -0.021138432 -0.011191514 0.011756737 -0.007585042
000130 cb 52 92 bd 5d 88 82 3c 02 b7 77 3d 3c 01 20 bd
       -0.07144698 0.015934164 0.060477264 -0.039063677
000140 5c 7c 24 bc 2e ed 3d bd 82 3a 82 3d c4 12 47 bc
       -0.010039415 -0.04636877 0.06358816 -0.01215047
000150 be cf cd bc 85 bb d2 3b 45 5f 1c 3d 44 ca a0 bd
       -0.025123473 0.0064310455 0.038176794 -0.07851079
000160 f6 6d 01 3c d4 1f 62 3d bf 91 e4 bc 6b 0d 27 ba
       0.007899752 0.055206135 -0.027901528 -0.0006372544
000170 1f 36 8e bb 4f f1 42 bc ae 2c f2 bc cb 2c 83 3d
       -0.004339948 -0.011898353 -0.02956232 0.06405028
000180 5f a6 57 bc 1b 23 8e 3b 8a 00 3e bd 46 12 81 bb
       -0.013162225 0.004337681 -0.046387233 -0.003938946
000190 b5 a5 0e bb 67 cd 47 bd 14 6b 45 3d ec 49 50 bd
       -0.002176625 -0.04877987 0.04819782 -0.050851747
0001a0 9f e6 61 bb b4 b5 b0 bc b3 4c 06 3d b1 ff de 3c
       -0.0034469736 -0.021571018 0.03278799 0.027221533
0001b0 59 08 07 3c ed 0d 6d bd f5 fa 57 3d 6b 76 b6 3c
       0.008241736 -0.05787461 0.052729566 0.022273263
0001c0 b5 d2 a7 bc ae 4f 49 3d 9a 7b 8d 3c 64 c7 75 3c
       -0.020486215 0.049148254 0.017270852 0.015001152
0001d0 02 a4 19 3c 5b ec 5c bd d5 8c 3a bd c6 44 9a 3d
       0.009377481 -0.053936344 -0.045544464 0.07532649
0001e0 11 f1 c4 bc d9 2d b3 bc b7 12 88 3c 8c 4a 90 3a
       -0.02404073 -0.021872448 0.016610486 0.0011008545
0001f0 d7 e3 e3 3c b8 3d eb 3c 2f d3 0a bd 49 0c 11 bc
       0.027818603 0.028715953 -0.033892807 -0.008853027
000200 7d f3 67 bb 00 c7 a1 3d c2 c5 ec 3c 33 e0 c3 3c
       -0.0035392933 0.07899284 0.028902892 0.023910617
000210 f2 de f8 bc bd 3b d8 3c bd 91 26 bd 36 81 cd bc
       -0.030379746 0.026395673 -0.04066633 -0.025086027
000220 27 c1 94 3d f7 3a e2 bb 40 e4 88 bc 04 95 96 3d
       0.072634034 -0.006904002 -0.0167104 0.07352641
000230 7b d5 c5 bc c6 53 3b 3d a6 89 8e 3d ab 27 b5 bd
       -0.024149647 0.04573419 0.06959848 -0.08845457
000240 78 1d 9c bc e1 35 8e bc 4a c9 e8 bb e5 76 ba 3c
       -0.01905702 -0.017359676 -0.0071040737 0.022761771
000250 26 3e 3a bd 43 0d 19 bb ea 38 f6 bc 4b ef 25 3c
       -0.045469426 -0.0023353852 -0.030056436 0.010127853
000260 15 d7 de bb 3d 97 fb 3c 46 9a ac 3d 15 ff 59 bc
       -0.006800542 0.030711764 0.08427863 -0.013305445
000270 b3 89 6b bd 31 0c 1e 3d 59 7f dc bc 99 0f a7 3c
       -0.057504367 0.038585845 -0.026916193 0.02039318
000280 83 ef b9 3b b4 23 be 3b fc 77 23 bd e5 c6 a7 bc
       0.005674304 0.005802596 -0.039909348 -0.020480582
000290 30 04 6b 3d fe 3a 88 3d 99 63 20 bd 73 2f 91 3c
       0.05737704 0.06651877 -0.039157484 0.01772282
0002a0 67 dd 12 bd e9 14 3b bc 34 74 df 3c e1 cc fd bb
       -0.035855677 -0.01141856 0.02727709 -0.0077453707
0002b0 76 af 15 bd 4f 5b 82 bc 96 3a 56 3a 9a 0a 05 bb
       -0.036544286 -0.01591268 0.0008172182 -0.0020300508
0002c0 79 d7 54 bd df e7 59 3d ee 9d 77 3c bd 1a 16 bd
       -0.051963303 0.053199645 0.015113337 -0.036646593
0002d0 a7 0d dd bc 36 ac d1 b8 c0 75 1c bd d2 37 18 bc
       -0.026984049 -9.9979734e-05 -0.038198233 -0.009290652
0002e0 76 ad f7 3c 2b 73 01 3c 16 7b d0 bc 58 60 e5 39
       0.03023408 0.007900993 -0.025449317 0.00043750065
0002f0 21 88 19 3b 3c 08 5a 3d 67 c1 81 bc 76 5c 52 bd
       0.0023427086 0.05323051 -0.015839292 -0.05135771
000300 9a d6 ea bb 31 81 27 3b 98 b8 47 bd 40 6e c2 39
       -0.007166696 0.0025559182 -0.048760027 0.00037084706
000310 7d e0 11 bc 04 f0 e6 bb e8 18 84 ba bf 5a 1d bd
       -0.00890362 -0.007047655 -0.0010078223 -0.03841662
000320 e3 00 ed 3c 89 24 3c bc 4a 8b a7 3d 11 97 8e 3d
       0.028931087 -0.01148332 0.08180864 0.069624074
000330 46 f3 11 bb 1b 77 96 3c 4d e2 f9 3c bd ed 8e 3b
       -0.0022270246 0.01836734 0.030503416 0.0043618367
000340 c9 5c 3c 3c db bb 1b bc cb 61 7e 3d 19 33 b5 3c
       0.011496731 -0.009505237 0.06210498 0.022119092
000350 21 96 7e bc e3 b4 0e 3d c3 fd 7f bc b0 ab 2c 3c
       -0.015538723 0.034840476 -0.015624466 0.01053898
000360 e7 cb 1e 3b 10 73 90 3d eb 4d db bb c9 19 b5 bc
       0.0024230422 0.070531964 -0.006692638 -0.022107022
000370 e3 9e 55 3d 65 92 57 3b 25 54 47 3d 71 1b 5e 3d
       0.05215348 0.0032893654 0.04866423 0.05422539
000380 36 3f f5 bb 92 b1 34 bd 43 0f 90 3b 08 1e c2 bb
       -0.007484342 -0.044114657 0.0043963506 -0.00592399
000390 c8 2a 6c bc d5 99 a8 bb a7 72 08 bd 54 c3 f4 3c
       -0.014414497 -0.0051452913 -0.033312466 0.029878296
0003a0 d3 fc 86 3d dc bc 16 bd 8d 08 a3 bc a0 dc 48 bd
       0.06591191 -0.036801204 -0.019901538 -0.04903853
0003b0 6d 42 44 bd f6 5f 1f bd 16 9b 30 bd f9 57 51 bb
       -0.04791491 -0.038909875 -0.04311665 -0.0031943305
0003c0 40 52 d0 3b 33 6d 38 3a 2f 25 4c 3d 23 8f 78 3c
       0.006357461 0.0007035315 0.04984015 0.015170845
0003d0 1e 24 88 bd 8f 63 53 3d 06 4c 7f bd d3 a1 0e 3d
       -0.06647514 0.05160862 -0.06232836 0.034822296
0003e0 e5 6c e4 38 5f 26 9a bb aa 59 48 bd 41 ea d8 bc
       0.000108921704 -0.004704281 -0.048913635 -0.026478888
0003f0 2b 59 aa 3c 03 e0 2e 3c 53 3c 3e bd 3d d6 bc 3c
       0.020794472 0.010673526 -0.04644425 0.023051376

qa_outputs.bias f4 [2]
000000 d0 ed b7 be 0d 6a c7 be
       -0.35923624 -0.38948098
