adapter_weights/adapter_qa_en-ar_mbert_15/pytorch_model_head.bin (torch, 7143 bytes, 2 tensors)

qa_outputs.weight f4 [2, 768]
000000 ac 59 10 3d 5c 59 f5 bc 36 8b d1 3c 31 76 f3 bc
       0.035241768 -0.029949836 0.025579076 -0.029719444
000010 17 7b 0a bc d1 26 26 bd 72 26 17 bd 03 06 a8 bc
       -0.0084521985 -0.040564362 -0.0369019 -0.02051068
000020 9b d7 48 3d 89 66 d5 3c 9a 34 41 3c 1e 23 94 bc
       0.049033742 0.02604987 0.011792326 -0.018083151
000030 9c 69 87 3b b6 58 e4 bc 22 73 40 bd c6 42 51 3a
       0.0041324627 -0.027874332 -0.0469848 0.00079826673
000040 54 01 75 3c c3 0b 33 bd 61 6f 2e bd 9d 87 91 3d
       0.01495393 -0.04371239 -0.042586688 0.07105944
000050 52 20 f7 3c 98 3b 85 bc 33 2e 33 3d 08 c3 e9 bb
       0.030166779 -0.016263768 0.04374523 -0.0071338452
000060 ae db f8 3c 1a 4a 2d bc 25 09 e1 3b 5a f9 88 3b
       0.030378189 -0.010576749 0.006867545 0.0041801156
000070 cd ed f9 3c 6f ba 1c bd 50 ef 80 3b 19 f0 8a 3c
       0.0305089 -0.038263734 0.0039347783 0.01696019
000080 5b b5 cd bc 25 45 eb bc 56 6a a1 3c ba 57 87 3d
       -0.025110891 -0.028719494 0.019704025 0.066085294
000090 6c f2 0f 3c 90 f5 6b bd bc e9 a1 3c 8d 45 39 b8
       0.008785825 -0.057607234 0.019764774 -4.417221e-05
0000a0 3a 54 1a bd dc 48 9c bd 4d 36 49 3d e7 49 9f 3c
       -0.03767798 -0.07631084 0.04912405 0.01944442
0000b0 8f 73 d5 bc 4d ae 1a 3d 55 39 a0 3c 86 05 ed 3b
       -0.02605608 0.037763882 0.019558588 0.0072333245
0000c0 c2 2b 15 bb 7e 27 86 3c 41 d9 84 bd fc 28 6a bb
       -0.0022761677 0.016376253 -0.064867504 -0.0035729995
0000d0 3a 4a d2 3c b1 79 23 3d 7e 00 22 3d da 7e 80 3c
       0.02567016 0.039910976 0.03955125 0.015685488
0000e0 72 26 79 3c 40 bf 8b bc e8 7f 35 3d 73 af 15 bb
       0.01520692 -0.017058969 0.044311434 -0.0022840172
0000f0 b7 59 8b 3c cb c1 94 bd c3 1b cf bb 2e e1 2c bd
       0.017010553 -0.072635256 -0.006320448 -0.042206936
000100 23 7a ec 3c a4 cf 8a bc 13 48 e7 bc 06 99 bb 3b
       0.028866833 -0.016944714 -0.02823261 0.005725029
000110 ef 0b 9e 3c 52 07 67 3c 3d c0 59 bd 08 0c 22 3c
       0.0192928 0.014100866 -0.05316185 0.009890564
000120 84 1c 6d bc 5a 7c 8d bc 74 bf a9 3d d7 63 72 bc
       -0.014472131 -0.01727121 0.0828847 -0.0147943115
000130 7e 66 d0 bc 1b 10 b1 bd 84 24 1d 3c 83 4b 0b bc
       -0.025439497 -0.0864565 0.009591226 -0.00850189
000140 07 9e 7b bc e6 cb 8c 3d 38 e5 26 bc 69 d7 a6 3c
       -0.015357501 0.06874828 -0.010186486 0.020366387
000150 4d 1c 12 bc 1e bf 74 bd 9a 73 d9 3c ce a7 51 bd
       -0.00891788 -0.059752576 0.026544381 -0.05118542
000160 88 21 5a bb c2 34 6f 3d 02 e1 03 bd ee 32 d9 bc
       -0.0033284146 0.058399923 -0.032197006 -0.026513543
000170 41 71 76 bc b1 fc 02 bd 69 92 2f 3c 3b 4f 61 bd
       -0.01504165 -0.031979267 0.010716059 -0.0550072
000180 e3 5c 96 bc 16 fd bc bb 0d e0 8e 3d fa e2 6e bc
       -0.018354839 -0.005767475 0.06976328 -0.014580483
000190 0a fd 9d 3c bb 7a cb bb 8b d3 70 3c 67 a9 2c 3d
       0.019285697 -0.006209699 0.014698873 0.042153742
0001a0 3a 81 a6 bc 22 34 a1 3c fc 91 bf bc 0d 07 16 3d
       -0.020325292 0.01967818 -0.02338504 0.036627818
0001b0 90 8c e0 3c 50 50 53 3d 7a 26 93 3c cf 7d 40 bd
       0.027410775 0.051590264 0.017962683 -0.04699498
0001c0 5d 1e 4e 3d d2 18 27 bc 2b 98 27 3d e1 ae 0a bd
       0.050321925 -0.010198789 0.040916603 -0.033858184
0001d0 6d bc c8 3c 37 11 3e 3c db 7f a9 3d 3a 12 16 bd
       0.02450391 0.011600784 0.082763396 -0.036638476
0001e0 58 dd 20 bd 1a dc 42 3c d4 a9 16 bd 69 a6 ef 3c
       -0.03927359 0.011893297 -0.036783054 0.029254155
0001f0 e7 a5 c6 3b ca ee 4c bd af d2 f9 bc 9d 33 ea 3b
       0.0060622576 -0.050032414 -0.03049597 0.007147266
000200 1c 07 c2 3b b4 75 fc ba aa 4f 98 bd 39 fd 71 bc
       0.0059212577 -0.0019261152 -0.0743707 -0.014769846
000210 06 6d 06 3b a0 14 51 b9 68 3c f0 bb 20 8c 74 3d
       0.002051176 -0.00019939477 -0.0073314197 0.059703946
000220 a1 b8 6e 3d 5c fd 85 bb dc b1 13 3d f1 9c 00 3d
       0.058281545 -0.0040890407 0.03605829 0.03139967
000230 25 22 e2 bc 8a 23 e2 bc d1 14 d7 bc 5f 97 4b 3d
       -0.027604172 -0.027604837 -0.026255043 0.049704906
000240 d5 02 03 bd bd 6e db 3c 83 5c a2 bc f2 0a 60 bc
       -0.031985123 0.026786203 -0.019819504 -0.013674485
000250 37 48 f3 bb ac 7d e8 3c d1 b6 41 3c af 8e b4 bc
       -0.00742438 0.028380238 0.011823372 -0.022040693
000260 63 c4 41 3d 15 87 b0 bc 8d ad 6c 3b d0 56 8b bb
       0.04730643 -0.021548787 0.0036114187 -0.004252292
000270 de b4 8d 3c 9f 44 38 bd 84 4b 46 bb 32 e6 c6 3b
       0.017298158 -0.044987317 -0.0030257413 0.006069922
000280 b9 42 8d bd 36 37 42 3d 5b 6f 00 bd 3b f0 62 bb
       -0.06897492 0.047415935 -0.031356197 -0.0034628052
000290 62 31 05 bc 89 9b 44 bd 6e 87 b5 bc ed b9 33 3b
       -0.00812945 -0.047999892 -0.022159304 0.0027424053
0002a0 de 4f 78 bc 14 52 32 3d 29 99 1b 3d 2a 39 67 bc
       -0.015155761 0.043535307 0.03798786 -0.01411275
0002b0 2c 88 1f bc 16 1d 7c 3c ee 0d da bc f9 02 1e bd
       -0.009737056 0.015387794 -0.02661797 -0.038577054
0002c0 4d 66 65 bd 7b 9e 44 3d 64 c1 aa bc 90 df 1f bd
       -0.056005765 0.0480027 -0.020844169 -0.039031565
0002d0 8c 10 c1 bb fa 33 8e 3d 67 20 92 bc d4 2b 80 ba
       -0.005891865 0.069435075 -0.017837716 -0.0009778687
0002e0 bf 15 5a bd d0 99 00 3a f6 18 b1 3d 41 e2 86 bc
       -0.053243395 0.00049057323 0.08647339 -0.016465308
0002f0 9f 56 97 bd ee 2b 22 3c 92 93 b4 3c 64 47 64 3c
       -0.073895685 0.009898169 0.022043023 0.0139330365
000300 d7 2b 8e 3c 4b 5c c3 3b b5 fe 47 bd ce bd 50 3d
       0.017354889 0.00596193 -0.048826892 0.05096226
000310 e4 29 dd bc 54 33 31 3d 08 78 4a 3d ee db 19 3d
       -0.026997514 0.04326184 0.049430877 0.037563257
000320 68 e8 41 3d 6a 96 f9 bc 50 9d 0f bd 17 93 33 3c
       0.04734078 -0.03046723 -0.035062134 0.010960362
000330 a3 ea 8d 3d 58 4e 63 3a 57 e8 e0 3c 9f c8 8b 3c
       0.06929519 0.0008671037 0.027454538 0.017063437
000340 b6 4a 79 bd 27 99 29 3d 8a 18 75 3d ac 3a b7 bc
       -0.060862266 0.041405823 0.059837855 -0.022366844
000350 a7 97 95 3c ed a6 bb 3c 68 66 97 bc 42 60 63 bc
       0.01826079 0.022906745 -0.018481448 -0.01387793
000360 bd 7d 40 bd e7 cc 89 bd ec 33 71 3d b5 19 60 3d
       -0.046994913 -0.06728535 0.058887407 0.054712016
000370 fd 24 77 bc 3a 60 39 bc 39 5a b2 bc 57 93 d8 bb
       -0.015084502 -0.011314446 -0.021771537 -0.006609361
000380 6d 0d 54 bd 0d a9 42 3c 6b b5 c1 3b 8f 52 e2 bb
       -0.051770616 0.011881125 0.0059115193 -0.0069068144
000390 c1 8b 21 bc 83 27 f8 bc be 78 b6 bc ac 84 f5 3a
       -0.00985998 -0.030292278 -0.022274371 0.0018731556
0003a0 58 c4 44 3d 08 e5 3e bd 14 81 b6 ba da e1 5b 3c
       0.04803881 -0.04660514 -0.0013923966 0.013420546
0003b0 a1 d3 8d bd 93 df 83 3d 45 e0 e5 3c 9c 07 08 bd
       -0.06925131 0.06439128 0.028061042 -0.033210382
0003c0 de 04 aa 3a 50 16 2c 3c 07 ce 53 bb bf 5c 13 3c
       0.0012971421 0.010503367 -0.0032318847 0.00899428
0003d0 66 9d 99 3c 03 75 1a 3d 65 5e 06 bb 43 a9 47 3d
       0.018751811 0.037709247 -0.002050304 0.048745405
0003e0 25 dc 3d 3d 55 97 89 bb 9e dd 8a bc 1d 2d 37 bc
       0.046352524 -0.0041989484 -0.016951378 -0.011180189
0003f0 15 65 b6 3a 33 c1 ef bb 89 f2 03 bd b7 c6 ce 3b
       0.0013915623 -0.0073167323 -0.03221372 0.0063103097

qa_outputs.bias f4 [2]
000000 10 53 df be 63 90 e1 be
       -0.4361806 -0.4405547
