adapter_weights/adapter_qa_en_xlm_2ep/pytorch_model_head.bin (torch, 7143 bytes, 2 tensors)

qa_outputs.weight f4 [2, 768]
0	0x3c0b6d61	0.008509965
1	0x3be4e47b	0.006985245
2	0x3a83f405	0.001006723
3	0xbd02ad50	-0.031903565
4	0x3c0df1ea	0.008663634
5	0xbd1980c4	-0.037476316
6	0x3caeaef4	0.021323659
7	0x3d075ea7	0.033049252
8	0xbc7fcb62	-0.015612455
9	0x3d5bdaba	0.05367539
10	0x3c422be0	0.011851281
11	0xbd9bb0a4	-0.07602051
12	0xbc3ad514	-0.011403341
13	0x3d3b213d	0.045685995
14	0x3d8b6630	0.068066
15	0x3d0835c7	0.03325441
16	0xbd67e0b5	-0.05661078
17	0xbcc786ca	-0.024356265
18	0x3ccda3de	0.025102552
19	0x3cc38d9d	0.023871237
20	0xbccbb3fa	-0.024866093
21	0xbc151540	-0.009099305
22	0xbd523f88	-0.05133012
23	0x3b970e65	0.0046098703
24	0xbc83daa3	-0.016095465
25	0xbc312cf3	-0.010813939
26	0xbd4210e0	-0.047379375
27	0xbc9c1268	-0.019051746
28	0x3bffafe9	0.0078029525
29	0x3d1ac2fa	0.0377836
30	0xbc9ae2c3	-0.018906957
31	0x3d60041c	0.05469142
32	0xbd0abbcf	-0.033870514
33	0xbd600c66	-0.054699324
34	0xbd9077ba	-0.07054086
35	0x3cd58bfa	0.026067723
36	0x3d09b0dc	0.033615932
37	0xbd4f3da6	-0.050595902
38	0xbd4e60c4	-0.05038525
39	0x3c0af1a4	0.008480463
40	0x3d06fd08	0.032956153
41	0xbca2373a	-0.019801725
42	0xbd1af4ff	-0.037831303
43	0xbcc66afa	-0.024220932
44	0x3cbd75af	0.023127405
45	0x3c828346	0.015931737
46	0x3d4272a6	0.04747262
47	0x3d6738e0	0.056450725
48	0x3ca26325	0.019822666
49	0x3b8cd022	0.0042972723
50	0x3c29631a	0.010338569
51	0xbcdb00fd	-0.02673387
52	0xbd9e4c67	-0.07729416
53	0xbc59b0eb	-0.013286809
54	0x3a66aa3e	0.0008799172
55	0xbadeda7e	-0.0017002372
56	0xbd5ec1e3	-0.054384124
57	0xbc84218a	-0.016129274
58	0xbc289aff	-0.01029086
59	0x3c7ef26b	0.015560727
60	0x3d5b783d	0.053581465
61	0xbc5354c6	-0.0128986295
62	0x3d5882c4	0.052859083
63	0x3d1e63ea	0.038669504
64	0x3d397e5c	0.04528652
65	0x3c9f8185	0.01947094
66	0x3d3d4c8c	0.04621558
67	0xbc71d8ba	-0.014761144
68	0xbaddc275	-0.0016918915
69	0x3d2e4604	0.04254724
70	0x3c5ec5c6	0.013596958
71	0xbca29ff5	-0.019851664
72	0xbca74d70	-0.020422667
73	0xbc1d3dec	-0.009597283
74	0x3c5c6abf	0.013453185
75	0xbb9e7e1d	-0.004836811
76	0xbd848ae9	-0.064718075
77	0x3c08a22c	0.008339446
78	0x3d44decf	0.04806405
79	0xbccda78e	-0.02510431
80	0xbb5722fb	-0.0032827246
81	0xbd20cb11	-0.03925616
82	0x3d5f6716	0.05454167
83	0xbc4e563b	-0.012593801
84	0xbc9abe89	-0.018889682
85	0x3b468598	0.003029203
86	0x3d0dac41	0.034588102
87	0xbd8ab932	-0.067736045
88	0x3bfc2a32	0.0076954598
89	0x3d35fbf5	0.044429738
90	0xbc67cbbe	-0.014147697
91	0x3bb9bb68	0.0056680925
92	0xbb3caa91	-0.002878819
93	0xbc2e46f8	-0.010637037
94	0xbced485d	-0.02896517
95	0x3d5b1440	0.05348611
96	0xbc50ba07	-0.012739665
97	0x3a56d348	0.00081949355
98	0xbd39e70d	-0.045386363
99	0xbb851e6e	-0.0040624654
100	0xbb5604b6	-0.0032656617
101	0xbd379da3	-0.04482807
102	0x3d2f4553	0.042790722
103	0xbd4b5436	-0.049640857
104	0xbaeeff45	-0.0018234035
105	0xbcf611fc	-0.030037872
106	0x3cf23db2	0.029570434
107	0x3cc99c06	0.02461053
108	0x3bb23cfe	0.0054393997
109	0xbd4e8b9e	-0.050426118
110	0x3d20e3a1	0.039279584
111	0x3cbcfabc	0.023068778
112	0xbc9434ff	-0.018091677
113	0x3d3cdede	0.04611098
114	0x3c8c23c9	0.017106907
115	0x3c339599	0.01096096
116	0x3bfa6c66	0.0076423166
117	0xbd296369	-0.04135457
118	0xbd3eb068	-0.046554953
119	0x3d8faa88	0.07014948
120	0xbc96e25d	-0.018418485
121	0xbc6c0112	-0.014404552
122	0x3bf1874c	0.007370865
123	0x39a01b50	0.00030537928
124	0x3c9e9fb0	0.019363254
125	0x3cc85aac	0.024457298
126	0xbce8f87a	-0.028438795
127	0xbc64279d	-0.01392546
128	0xba025fac	-0.00049733627
129	0x3d89ddd9	0.06731767
130	0x3ce4205c	0.027847461
131	0x3cb09818	0.021556899
132	0xbcac157a	-0.021006335
133	0x3cb791cd	0.02240839
134	0xbd26e031	-0.04074115
135	0xbcade4b4	-0.021227218
136	0x3d8de8d5	0.06929175
137	0x3af6400f	0.0018787401
138	0xbc6298db	-0.013830389
139	0x3d8f8b44	0.07008985
140	0xbcbced02	-0.023062233
141	0x3d15251a	0.036412336
142	0x3d6ca244	0.057771936
143	0xbda18a84	-0.07887748
144	0xbcbb65e7	-0.02287574
145	0xbcb1e2a0	-0.021714509
146	0xbc15e97a	-0.009149903
147	0x3c9cddc6	0.019148719
148	0xbd1834ff	-0.037159916
149	0xbaba34db	-0.0014206426
150	0xbce23ffa	-0.027618397
151	0x3c0a47e1	0.008439989
152	0xbc46c7fe	-0.012132643
153	0x3cd216d7	0.025645657
154	0x3d9d6ac7	0.07686382
155	0xbc742501	-0.014901401
156	0xbd44fc6b	-0.048092287
157	0x3d2308d4	0.03980334
158	0xbcaefd41	-0.021360995
159	0x3c89f4ef	0.016840426
160	0x3c257693	0.010099071
161	0x3bb070bd	0.005384533
162	0xbd15d6c5	-0.036581773
163	0xbcaf2bc4	-0.021383174
164	0x3d4a9c29	0.049465332
165	0x3d62f7c5	0.055412073
166	0xbcfb241e	-0.03065687
167	0x3c8b0261	0.016968908
168	0xbd0443f3	-0.032291364
169	0xbc410454	-0.011780817
170	0x3ce5b36b	0.028039655
171	0xbc4f86d8	-0.012666427
172	0xbd0ccb20	-0.034373403
173	0xbb613580	-0.0034364164
174	0x3acc5d1c	0.0015591714
175	0xbb9d329c	-0.004797293
176	0xbd544ab6	-0.051829062
177	0x3d572ee4	0.052534953
178	0x3c4c657b	0.012475367
179	0xbd167885	-0.03673603
180	0xbcb058cd	-0.021526719
181	0xbae91c43	-0.0017784912
182	0xbd055881	-0.032555107
183	0xbc4dfd80	-0.012572646
184	0x3ccf9276	0.025338393
185	0x3c37ab2f	0.011210247
186	0xbcb26759	-0.021777796
187	0x3c845c3a	0.016157258
188	0x3a2f8273	0.00066951587
189	0x3d3a1ba2	0.04543651
190	0xbc1de6df	-0.0096375635
191	0xbd368c55	-0.044567425
192	0xbb6b55a1	-0.0035909193
193	0x3a63aa08	0.00086846994
194	0xbd406b6a	-0.046977438
195	0xbb3265ca	-0.0027221316
196	0xbbc3cb01	-0.0059751277
197	0xbc25b719	-0.010114455
198	0xbbbae8e4	-0.0057040323
199	0xbd10421f	-0.035219308
200	0x3ca7cb1d	0.020482594
201	0xbb6c604a	-0.0036068135
202	0x3d9e7ded	0.07738862
203	0x3d729496	0.059223734
204	0x3b787c10	0.0037915744
205	0x3c9d038a	0.019166727
206	0x3d060835	0.03272267
207	0x3b61c3fe	0.0034449096
208	0x3c515589	0.012776741
209	0xbc272c44	-0.010203425
210	0x3d721838	0.059105128
211	0x3cc2e6a2	0.023791615
212	0xbc4215af	-0.01184599
213	0x3d064b28	0.03278652
214	0xbbfdeaab	-0.007748922
215	0x3c442e80	0.011973977
216	0x3c1f1e52	0.009711819
217	0x3d813b90	0.06310189
218	0xbc626137	-0.013817123
219	0xbcc4b718	-0.024013087
220	0x3d1eddc1	0.0387857
221	0x3b6570e8	0.0035009924
222	0x3d150950	0.036385834
223	0x3d515460	0.051105857
224	0xbb7ed5c8	-0.0038884748
225	0xbd1f28ad	-0.03885715
226	0x3b9e28fc	0.004826663
227	0xbc1104d7	-0.008851252
228	0xbc5a5cb4	-0.013327766
229	0xbc21a0d9	-0.009865009
230	0xbd1205bb	-0.035649996
231	0x3ccf1ba5	0.025281737
232	0x3d80c0ff	0.06286811
233	0xbd04f20e	-0.032457404
234	0xbc49a244	-0.012306754
235	0xbd28eb14	-0.041239813
236	0xbd20678d	-0.039161254
237	0xbcf3d242	-0.029763345
238	0xbd1661d0	-0.036714375
239	0x3a83d56c	0.0010058112
240	0x3badd407	0.0053048166
241	0xbb0efc14	-0.002181773
242	0x3d362493	0.044468474
243	0x3c0b5951	0.008505181
244	0xbd703a04	-0.058649078
245	0x3d3dfef0	0.046385705
246	0xbd65a25b	-0.056063037
247	0x3d01f1a0	0.031724572
248	0xbba0e32f	-0.004909895
249	0xbb2fcc05	-0.0026824486
250	0xbd2152e6	-0.0393857
251	0xbc8e85b3	-0.017397737
252	0x3ca6f965	0.020382592
253	0x3c2e1554	0.010625202
254	0xbd31486b	-0.043281954
255	0x3c91893a	0.01776563

qa_outputs.bias f4 [2]
0	0xbe176e48	-0.14788163
1	0xbe375ad6	-0.17905745
