adapter_weights/adapter_qa_en-en_mbert_15/pytorch_model_head.bin (torch, 7143 bytes, 2 tensors)

qa_outputs.weight f4 [2, 768]
000000 9b 02 27 3d 8a f1 d2 bc 64 3e d5 3c 5e 48 f5 bc
       0.04077397 -0.02574994 0.026030727 -0.029941734
000010 1f a2 0a bc 37 73 17 bd d1 bc 1d bd 18 b5 cd bc
       -0.008461504 -0.03697511 -0.038510147 -0.025110766
000020 43 77 35 3d 2a ba c1 3c c6 80 18 3c dc ff 4a bc
       0.04430319 0.02364834 0.009308046 -0.012390103
000030 50 be b6 3b f4 17 f6 bc 49 ad 23 bd 38 bc 62 3b
       0.0055768862 -0.030040719 -0.03996018 0.003459705
000040 d8 b3 78 3c b9 de 1c bd 72 7f 26 bd 65 25 8c 3d
       0.015179597 -0.038298342 -0.040648885 0.0684307
000050 ac f2 00 3d 28 1c 98 bc 2d 82 47 3d 12 7e 3f bc
       0.03148143 -0.018568113 0.04870813 -0.011687772
000060 fb db d7 3c 53 35 28 bc 41 8b cd 3b 6e 22 0b 3b
       0.026350012 -0.01026662 0.006272704 0.0021230238
000070 e3 e4 ee 3c d9 c6 1f bd 60 8f ee 3b 91 98 a2 3c
       0.029161876 -0.039007995 0.007280275 0.01984814
000080 aa 73 e6 bc 83 b1 c0 bc f2 45 a7 3c fe 19 98 3d
       -0.028131325 -0.023522144 0.020419095 0.074268326
000090 4d 17 5c 3c d6 da 7e bd e2 c3 77 3c 3a 84 b6 bb
       0.01343329 -0.062220417 0.015122386 -0.005569962
0000a0 b1 73 23 bd 6d d7 99 bd a0 1a 35 3d f1 1a 97 3c
       -0.039905254 -0.07511792 0.044214845 0.018445464
0000b0 98 ec ca bc 18 1d 1e 3d 08 d4 9e 3c ba 71 aa 3c
       -0.02477102 0.038601965 0.019388214 0.020806182
0000c0 2f 47 d8 bb d5 09 81 3c cd e9 90 bd 3d f7 98 bb
       -0.0066002826 0.015751759 -0.07075844 -0.004668145
0000d0 0d ec 17 3d f3 5f 41 3d 49 bc 19 3d 64 7e 98 3c
       0.03709035 0.047210645 0.03753308 0.018614955
0000e0 ff 47 ae 3c 77 0f c0 bc 2d 3e 36 3d 10 96 bd bb
       0.021274565 -0.023444874 0.04449289 -0.005785711
0000f0 b6 83 80 3c 7f 8a 91 bd 91 49 a7 bb cb fb 1e bd
       0.015687805 -0.07106494 -0.0051052053 -0.038814347
000100 81 94 05 3d 00 f9 62 bc 9c 7b 10 bd b3 d5 f0 3b
       0.032612327 -0.013853312 -0.035274133 0.0073496937
000110 9a bf 7b 3c 4d cd c0 3c c3 20 8a bd 36 bd 14 3c
       0.015365506 0.023535395 -0.0674453 0.0090783145
000120 ab fe 4b bc 32 33 a1 bc 21 2d a8 3d ba e8 3f bc
       -0.012450854 -0.019677732 0.08211733 -0.011713201
000130 bd 17 b0 bc ec de a5 bd ce 06 03 3c 32 1f 74 bc
       -0.021495694 -0.080991596 0.007997228 -0.014900016
000140 dd 23 1f bc 1f 3c 8a 3d 3a 94 01 bc 4f c8 bc 3c
       -0.00971314 0.067497484 -0.007908875 0.023044733
000150 c9 6a 91 ba b1 72 71 bd 36 e4 e3 3c 94 77 3d bd
       -0.0011094447 -0.05894727 0.02781878 -0.046256617
000160 fa 3b 9a bb 9e 3b 80 3d 91 13 03 bd 21 e4 b0 bc
       -0.004706857 0.06261371 -0.03200108 -0.021593155
000170 05 a4 98 bc e7 7c 00 bd b7 cb 80 3c 19 25 4d bd
       -0.018632898 -0.031369116 0.015722139 -0.050084207
000180 a7 78 af bc 3d c5 0b bb 18 6f 8e 3d 07 01 61 bc
       -0.021419836 -0.002132728 0.06954783 -0.013733155
000190 3c ed a6 3c eb b6 4c bc 19 46 90 3c 93 bd 34 3d
       0.020376794 -0.012494783 0.01761155 0.044126105
0001a0 3f ad c0 bc b5 a3 ad 3c f9 ca 94 bc c9 40 12 3d
       -0.02352011 0.021196226 -0.018163191 0.035706315
0001b0 db a4 04 3d bf 28 5a 3d 6e 76 47 3c 79 f4 22 bd
       0.03238378 0.053261515 0.012174232 -0.03978393
0001c0 81 30 44 3d 3e d7 68 bc 25 e8 1d 3d 53 37 0f bd
       0.04789782 -0.014211474 0.03855147 -0.03496487
0001d0 57 89 be 3c a2 e7 4e 3c 78 05 ab 3d 54 f5 14 bd
       0.023258848 0.012628468 0.083506525 -0.036366776
0001e0 13 bf 24 bd 39 f0 2e 3c 84 60 1f bd ab 1f e2 3c
       -0.040221285 0.010677391 -0.038910404 0.027602991
0001f0 b8 aa 1e 3c 11 7e 53 bd f7 b2 f9 bc f8 c8 94 3b
       0.009684257 -0.0516339 -0.030480845 0.004540559
000200 d2 9a 37 3c d4 38 48 bb 19 f8 9b bd de 15 87 bc
       0.011206346 -0.003055145 -0.0761568 -0.01648992
000210 41 67 72 3a c6 3e 8d ba 48 4a d6 bb c9 d3 5a 3d
       0.00092469534 -0.0010776154 -0.0065396167 0.05342463
000220 28 c4 77 3d be a8 25 3b e8 d6 15 3d 2d 73 05 3d
       0.060489804 0.002527758 0.036581904 0.032580543
000230 6d b0 dc bc 37 a3 0d bd 02 76 f0 bc 0b 8e 53 3d
       -0.026939595 -0.034579482 -0.029353146 0.051649135
000240 39 0f 0c bd d0 89 d8 3c 12 4e d9 bc 58 da 8e bc
       -0.034194205 0.026432902 -0.026526485 -0.017438099
000250 ab af 49 bc 12 30 c2 3c 9d 85 7f 3c fe 84 a2 bc
       -0.012309949 0.023704562 0.015595821 -0.019838806
000260 93 12 36 3d 8f 5e 6b bc d3 67 8d 3b 27 e8 5f 3b
       0.044451308 -0.014365806 0.0043153553 0.0034165473
000270 a6 4c 9b 3c ab 5d 45 bd 14 dc f0 3a 6e 02 fd 3b
       0.018957447 -0.04818503 0.0018376135 0.007721237
000280 e0 65 91 bd a6 e4 42 3d 36 cc da bc 6a 27 e7 b9
       -0.07099509 0.047581337 -0.026708703 -0.0004408912
000290 9f d1 9a bb 44 e0 59 bd 29 6e ab bc ea 25 cf 3a
       -0.004724696 -0.053192392 -0.020926552 0.0015804146
0002a0 d7 71 5e bc 9a 52 30 3d e9 34 18 3d 04 6a 1c bc
       -0.013576946 0.043047525 0.037159834 -0.0095467605
0002b0 c6 c4 e9 bb 1d 54 b0 3c 1d b2 ed bc 95 a5 39 bd
       -0.007134053 0.021524483 -0.029015595 -0.045323927
0002c0 74 58 69 bd 84 78 4b 3d 4d c9 87 bc 2a 8d 28 bd
       -0.05696912 0.04967548 -0.01657548 -0.04115025
0002d0 29 bb 5a bb ec e1 92 3d 97 ff a0 bc 44 1f ec ba
       -0.0033375716 0.071719974 -0.019653125 -0.0018014689
0002e0 e8 fa 51 bd 1d 75 bb 3a 41 69 c2 3d 4e 04 8a bc
       -0.051264673 0.001430187 0.09492732 -0.016847756
0002f0 3a a7 a1 bd ae 21 a7 3b 6a 42 95 3c e6 9a 74 3c
       -0.07893224 0.0051004505 0.018220145 0.014929509
000300 2d f7 a6 3c 58 68 17 3a 65 de 3c bd d7 23 69 3d
       0.020381534 0.00057757413 -0.04611053 0.056918945
000310 79 cd d6 bc 01 6f 3e 3d 17 d9 4e 3d 2e 88 25 3d
       -0.026221024 0.04649258 0.0505 0.040413074
000320 6e dc 72 3d 1f 21 0b bd 4c 01 1b bd 33 c9 1e 3c
       0.05929225 -0.033967134 -0.037843034 0.009691524
000330 d5 d3 8e 3d f0 81 e1 3a bb da d6 3c d4 71 8e 3c
       0.069739975 0.0017204862 0.026227346 0.017388262
000340 5a a5 82 bd eb 1c 28 3d c2 51 74 3d 3e eb b9 bc
       -0.063791946 0.041043203 0.059648283 -0.02269518
000350 03 ba a5 3c 67 dc cc 3c 98 00 08 bd f3 4c 79 bc
       0.020230299 0.02500744 -0.03320369 -0.0152161
000360 43 5d 22 bd a0 61 8c bd cc 57 71 3d c9 83 4e 3d
       -0.039639723 -0.06854558 0.05892162 0.05041865
000370 ac ae b2 bc 01 b6 43 bc 35 9a f2 bc ec b4 55 bc
       -0.021811806 -0.011945249 -0.029614547 -0.013043623
000380 09 13 2d bd d3 93 66 3c 01 a9 1b 3b 8e fb 16 bc
       -0.04225448 0.01407333 0.0023751857 -0.009215249
000390 f2 fe 89 bc 91 f1 ce bc c2 17 b5 bc 08 36 a2 3b
       -0.0168452 -0.025261672 -0.022106055 0.0049502887
0003a0 aa 1f 48 3d 74 5a 4b bd 97 66 b2 ba 5d 5f 47 3c
       0.048858322 -0.04964681 -0.0013610896 0.0121687325
0003b0 bb fa 7c bd da 1f 84 3d dd 0d da 3c 43 9b f6 bc
       -0.061762553 0.06451388 0.026617939 -0.030103331
0003c0 17 8d b4 3b 52 d1 35 3c 21 3f db bb b5 5e 50 3c
       0.0055099833 0.011097269 -0.006690875 0.012717892
0003d0 54 18 84 3c bf a0 12 3d 06 3e 9f bb 20 39 62 3d
       0.016124882 0.03579783 -0.0048596887 0.05523026
0003e0 c5 2c 32 3d dd f0 3e bb 73 e0 bf bc e2 5d 4e bc
       0.043499727 -0.0029135265 -0.023422455 -0.012595626
0003f0 54 4e 12 bb 75 24 fd bb d8 49 17 bd 6e 09 0b ba
       -0.002232452 -0.0077252933 -0.036935657 -0.00053038343

qa_outputs.bias f4 [2]
000000 59 f5 e1 be 5f 69 e3 be
       -0.44132498 -0.4441633
