adapter_weights/adapter_qa_en-th_xlm_15/pytorch_model_head.bin (torch, 7143 bytes, 2 tensors)

qa_outputs.weight f4 [2, 768]
0	0x3c2c9c7d	0.010535357
1	0x3c0edffe	0.008720396
2	0xbb92f90c	-0.004485255
3	0xbd213228	-0.039354473
4	0x3befdf8f	0.0073203514
5	0xbd2455d7	-0.040120926
6	0x3cc8ba42	0.024502877
7	0x3d27cf5c	0.040969238
8	0xbcd5d544	-0.02610267
9	0x3d861ece	0.06548844
10	0x3c8a7ffc	0.01690673
11	0xbdab1402	-0.083534256
12	0xbc8479d0	-0.016171366
13	0x3d451d44	0.048123613
14	0x3da0e759	0.07856626
15	0x3d3071cf	0.043077286
16	0xbd84d314	-0.064855725
17	0xbd0d8513	-0.034550738
18	0x3d089b40	0.033351183
19	0x3ce5f6bd	0.028071756
20	0xbd1b66b5	-0.037939746
21	0xbc7449fc	-0.014910217
22	0xbd68741b	-0.05675135
23	0xbb1b3d54	-0.0023687677
24	0xbc7c3a78	-0.015394799
25	0xbc331dc4	-0.01093239
26	0xbd608668	-0.05481568
27	0xbc9b1418	-0.01893048
28	0x3ca30738	0.019900903
29	0x3d3708f9	0.04468629
30	0xbcbc369d	-0.02297526
31	0x3d7fe4f6	0.062474214
32	0xbd5bf9bc	-0.053704962
33	0xbd7fa3b0	-0.062411964
34	0xbd9c3e55	-0.076290764
35	0x3d01d0c2	0.031693228
36	0x3d4c08e8	0.04981318
37	0xbd79c342	-0.060977228
38	0xbd6b70d7	-0.05748066
39	0x3c17d189	0.009266266
40	0x3d1e08d2	0.03858263
41	0xbcc4d090	-0.024025232
42	0xbd26baa7	-0.04070535
43	0xbcdd4240	-0.02700913
44	0x3cff965b	0.031199625
45	0x3cb8c4f6	0.022554856
46	0x3d73781a	0.05944071
47	0x3d93982b	0.07206758
48	0x3caaa1ad	0.020829046
49	0x3bcba073	0.0062141954
50	0x3c398eeb	0.011325578
51	0xbd06cf58	-0.032912582
52	0xbdb31fd2	-0.087463036
53	0xbc88ffa8	-0.016723469
54	0x3b049181	0.0020228329
55	0xbbdd0fdd	-0.006746276
56	0xbda289b2	-0.079364195
57	0xbc92fabb	-0.017941823
58	0xbc76f295	-0.0150724845
59	0x3cee79ba	0.029110778
60	0x3d89c71c	0.0672743
61	0xbcb0a30f	-0.021562127
62	0x3d799a46	0.060938142
63	0x3d481200	0.04884529
64	0x3d6c890a	0.057747878
65	0x3cfb82f1	0.030702086
66	0x3d70f12a	0.058823742
67	0xbc5385ff	-0.012910365
68	0x3aa6f6d6	0.0012738358
69	0x3d5a7bbd	0.053340662
70	0x3c0fd56c	0.008778911
71	0xbcc42c05	-0.023946771
72	0xbc90a8df	-0.017658649
73	0xbbfd69d2	-0.007733562
74	0x3c935be3	0.017988151
75	0xbb28e717	-0.0025772506
76	0xbd96e831	-0.07368506
77	0x3c2dcd8f	0.010608091
78	0x3d80a58b	0.06281575
79	0xbd1a63f4	-0.03769298
80	0xbc03696c	-0.00802074
81	0xbd484dba	-0.04890225
82	0x3d902de5	0.07040004
83	0xbc247aca	-0.010039041
84	0xbcfb974c	-0.030711792
85	0x3bdd2ee9	0.006749977
86	0x3d2348bd	0.03986429
87	0xbda8576c	-0.082197994
88	0x3be79881	0.0070677404
89	0x3d6854c5	0.056721468
90	0xbd026616	-0.031835638
91	0x3b23aec8	0.0024976004
92	0xbbbbc198	-0.0057298653
93	0xbc9ce50b	-0.019152185
94	0xbcf96cf4	-0.03044746
95	0x3d898e48	0.06716591
96	0xbc869f60	-0.016433418
97	0x3a936b0c	0.0011247112
98	0xbd493d6d	-0.049130846
99	0xbb12d98c	-0.00224075
100	0xbbd0c497	-0.0063710916
101	0xbd5d1b37	-0.053981032
102	0x3d581a86	0.05275967
103	0xbd5d55a1	-0.05403674
104	0xbb44f875	-0.0030055318
105	0xbcc88d25	-0.024481365
106	0x3d0cbb25	0.034358162
107	0x3d094f7e	0.033523075
108	0x3c06151f	0.008183747
109	0xbd6d1843	-0.057884466
110	0x3d611327	0.054949906
111	0x3cb74a4c	0.022374295
112	0xbcbec7bc	-0.0232886
113	0x3d591f66	0.05300846
114	0x3cb5a380	0.02217269
115	0x3c464271	0.012100802
116	0x3c813952	0.015774403
117	0xbd553bb6	-0.052058898
118	0xbd33ee18	-0.043928236
119	0x3da3edd1	0.08004344
120	0xbce5e4bf	-0.028063176
121	0xbca7fe1a	-0.020506907
122	0x3c84bdec	0.016203843
123	0x3b19e33f	0.0023481396
124	0x3cda1c3b	0.02662479
125	0x3d062b99	0.03275642
126	0xbd08adda	-0.033368923
127	0xbc11c439	-0.008896881
128	0xbb6e674c	-0.0036377488
129	0x3dad199b	0.084521495
130	0x3d03582d	0.032066513
131	0x3cc86ade	0.02446502
132	0xbd09fdd4	-0.033689335
133	0x3cdad3bc	0.026712291
134	0xbd35ca81	-0.044382576
135	0xbce0b288	-0.02742888
136	0x3da687f2	0.08131398
137	0xbb98bbfb	-0.004661081
138	0xbc6e3f45	-0.014541452
139	0x3d947c14	0.072502285
140	0xbcde1a00	-0.027112007
141	0x3d4087db	0.047004562
142	0x3d8f32ff	0.069921486
143	0xbdb34df8	-0.08755106
144	0xbca9c7ba	-0.02072512
145	0xbc8b6620	-0.01701647
146	0xbc13dcff	-0.009024858
147	0x3cd594c0	0.026071906
148	0xbd24d75a	-0.040244438
149	0xbb31e3b3	-0.0027143776
150	0xbce2eeb1	-0.027701708
151	0x3c24d5d4	0.010060746
152	0xbc0dc7bc	-0.008653577
153	0x3d0a4e94	0.033766344
154	0x3daf918c	0.08572683
155	0xbc09dea7	-0.008414901
156	0xbd77638c	-0.06039767
157	0x3d332e45	0.043745298
158	0xbcbf60fc	-0.023361675
159	0x3c8db475	0.017297963
160	0x3afc0804	0.0019228463
161	0x3b8f9fda	0.0043830695
162	0xbd38d4ec	-0.045124933
163	0xbc9d1e61	-0.019179525
164	0x3d6b1119	0.057389352
165	0x3d89e922	0.0673392
166	0xbd13fd8e	-0.03613048
167	0x3c876214	0.01652626
168	0xbd1ee431	-0.03879184
169	0xbc33e52a	-0.01097993
170	0x3cda507f	0.026649712
171	0xbc3134b7	-0.010815791
172	0xbd1dbcca	-0.03851012
173	0xbc9a1ff8	-0.018814072
174	0x3a95b283	0.0011420998
175	0xbadf50d6	-0.0017037641
176	0xbd6060df	-0.054779883
177	0x3d75d5a4	0.060018197
178	0x3c5b2a04	0.0133767165
179	0xbd115112	-0.035477705
180	0xbcdb8e72	-0.026801322
181	0xb9eefd06	-0.00045583415
182	0xbd285502	-0.041096695
183	0xbc23c392	-0.009995358
184	0x3cf1d9b1	0.029522749
185	0x3c0c9ca7	0.008582271
186	0xbce36ff5	-0.027763346
187	0x3c1260bc	0.008934196
188	0x3a897fca	0.0010490355
189	0x3d6e2b1e	0.05814659
190	0xbc990deb	-0.018683394
191	0xbd605f16	-0.05477818
192	0xbbe6cb41	-0.0070432727
193	0x3ae6c632	0.0017606674
194	0xbd44eaa0	-0.04807532
195	0x3b07f3e5	0.0020744738
196	0xbba61dfa	-0.0050694915
197	0xbc4fc000	-0.012680054
198	0xbbcb10c0	-0.006197065
199	0xbd290b64	-0.04127063
200	0x3cc78a8c	0.024358056
201	0xbc0dc8e3	-0.008653852
202	0x3dadd4d2	0.08487858
203	0x3d91efe1	0.071258314
204	0xbaf805fa	-0.001892268
205	0x3c913d73	0.017729497
206	0x3cf56b5a	0.029958416
207	0x3b2108a1	0.0024571794
208	0x3c4aa2a3	0.012367877
209	0xbc504289	-0.012711176
210	0x3d815bfe	0.06316374
211	0x3cd662b5	0.026170114
212	0xbc9b109e	-0.018928822
213	0x3d196acf	0.037455376
214	0xbc46618b	-0.012108217
215	0x3c73ae16	0.014873048
216	0xb8e86e7d	-0.00011083202
217	0x3d9d3c2b	0.07677492
218	0xbbffa0bf	-0.007801145
219	0xbcc8a17a	-0.02449106
220	0x3d548260	0.051882148
221	0x3bf75699	0.007548165
222	0x3d64237a	0.055697896
223	0x3d69ad19	0.057049844
224	0xbc00e7bb	-0.007867749
225	0xbd3ffcc3	-0.04687191
226	0x3c1e5df2	0.009665953
227	0xbbe5973f	-0.0070065553
228	0xbc95d030	-0.018287748
229	0xbc3ad101	-0.0114023695
230	0xbd0730aa	-0.033005394
231	0x3d121706	0.035666488
232	0x3d85b5f2	0.06528844
233	0xbd23b72b	-0.039969604
234	0xbc9e99d9	-0.01936047
235	0xbd517478	-0.051136464
236	0xbd45b349	-0.048266683
237	0xbd2c96f5	-0.04213615
238	0xbd414cc8	-0.047192365
239	0xb9827eb6	-0.0002488994
240	0x3c047b33	0.008086014
241	0x3a0f2dbb	0.00054618315
242	0x3d4fe888	0.05075887
243	0x3c68b609	0.014203557
244	0xbd97187d	-0.07377718
245	0x3d5ca058	0.053863853
246	0xbd83db96	-0.06438367
247	0x3d164568	0.036687285
248	0xbad2c58c	-0.0016080602
249	0xbc64cdb1	-0.013965056
250	0xbd4c99df	-0.04995143
251	0xbcc31120	-0.023811877
252	0x3caf8d66	0.021429729
253	0x3c27589d	0.010213998
254	0xbd4d552b	-0.05013005
255	0x3ce111c7	0.027474297

qa_outputs.bias f4 [2]
0	0xbeb8d13d	-0.36097136
1	0xbec84a55	-0.3911921
