adapter_weights/adapter_qa_en-el_xlm_15/pytorch_model_head.bin (torch, 7143 bytes, 2 tensors)

qa_outputs.weight f4 [2, 768]
0	0x3c28ec98	0.010310315
1	0x3c2ab493	0.010419029
2	0xbb68e404	-0.0035536299
3	0xbd185584	-0.03719093
4	0x3c06182a	0.008184472
5	0xbd1acdd7	-0.03779396
6	0x3cb9e0b3	0.022690153
7	0x3d1b1e6e	0.037870817
8	0xbcab48a3	-0.02090866
9	0x3d7a4763	0.061103236
10	0x3c98275d	0.018573457
11	0xbda50728	-0.080580056
12	0xbc5fe184	-0.013664607
13	0x3d4ceca7	0.050030377
14	0x3da5d914	0.08098045
15	0x3d29ba4b	0.04143743
16	0xbd7d30bf	-0.061814066
17	0xbd026909	-0.03183845
18	0x3cf67dc6	0.03008927
19	0x3cc9921d	0.024605805
20	0xbd0eb448	-0.0348399
21	0xbc92a7b9	-0.017902242
22	0xbd6880d1	-0.056763474
23	0x3be81fd2	0.0070838714
24	0xbbb0c4e5	-0.0053945654
25	0xbc205630	-0.009786174
26	0xbd671a8f	-0.056421813
27	0xbc8a08f1	-0.016849967
28	0x3cb7e27a	0.02244686
29	0x3d325529	0.043538246
30	0xbc90284f	-0.017597346
31	0x3d7b2840	0.061317682
32	0xbd57736d	-0.052600313
33	0xbd6db4d2	-0.05803377
34	0xbda062ae	-0.07831322
35	0x3ce8a8a1	0.028400721
36	0x3d425c24	0.047451153
37	0xbd7316f6	-0.05934807
38	0xbd7b78a6	-0.061394356
39	0x3c2528c5	0.010080521
40	0x3d20a828	0.039222866
41	0xbca49b1a	-0.02009349
42	0xbd276c9e	-0.04087507
43	0xbcb4c8d7	-0.022068424
44	0x3cf1de81	0.029525043
45	0x3cb0b613	0.021571195
46	0x3d6be64e	0.057592683
47	0x3d8f1ffd	0.06988523
48	0x3cade2dd	0.02122634
49	0x3bcb9bec	0.0062136557
50	0x3c58da17	0.01323559
51	0xbd0e2826	-0.034706257
52	0xbdb60cc2	-0.08889152
53	0xbca15e0b	-0.019698163
54	0x3b8e5ea0	0.0043447763
55	0x39c7246c	0.00037983374
56	0xbd97a854	-0.07405153
57	0xbc8b3841	-0.016994597
58	0xbc79c3a1	-0.0152443955
59	0x3c97e2dd	0.018540794
60	0x3d818020	0.06323266
61	0xbcafb161	-0.021446886
62	0x3d6d2802	0.057899483
63	0x3d3c9d7e	0.046048634
64	0x3d56c7bb	0.05243657
65	0x3cee3f51	0.029082926
66	0x3d4c39bb	0.049859744
67	0xbc49b4a0	-0.012311131
68	0x3b8f07ef	0.0043649594
69	0x3d3fa4b3	0.04678793
70	0x3c078eda	0.008273805
71	0xbc9df015	-0.01927952
72	0xbc9c6542	-0.019091252
73	0xbc3481c1	-0.011017264
74	0x3c7740f1	0.015091167
75	0xbbec8ac6	-0.0072186915
76	0xbd91151a	-0.07084103
77	0x3c610f11	0.013736502
78	0x3d812c52	0.063072816
79	0xbd17e64f	-0.037084874
80	0xbc0781ad	-0.008270663
81	0xbd3dce30	-0.046339214
82	0x3d8a8d8f	0.067652814
83	0xbc5c6541	-0.013451875
84	0xbcddceb8	-0.02707611
85	0x3b1a1002	0.0023508077
86	0x3d16421c	0.03668414
87	0xbda5d62e	-0.08097492
88	0x3bc146ac	0.0058983173
89	0x3d621e1d	0.0552045
90	0xbcdff910	-0.027340442
91	0x3b1c8d7e	0.0023888047
92	0xbba55c6e	-0.005046419
93	0xbc76db70	-0.015066966
94	0xbd04a2e3	-0.032381903
95	0x3d7a4dd0	0.061109364
96	0xbc89b6ab	-0.016810736
97	0xbac151df	-0.0014749131
98	0xbd38544c	-0.045002267
99	0xbaa75a52	-0.0012768006
100	0xbb05a049	-0.0020389727
101	0xbd4f3908	-0.0505915
102	0x3d51f0ed	0.051255155
103	0xbd64880e	-0.055793814
104	0xbb1366cf	-0.0022491699
105	0xbcbb7273	-0.022881722
106	0x3d03435d	0.032046665
107	0x3cf695e9	0.03010078
108	0x3c190e25	0.009341751
109	0xbd6e10e8	-0.05812159
110	0x3d58371d	0.052786935
111	0x3cad5653	0.021159327
112	0xbcb251a0	-0.021767437
113	0x3d50e357	0.05099806
114	0x3cb69aaa	0.022290546
115	0x3c4636fc	0.01209807
116	0x3c699e94	0.014258999
117	0xbd3daba1	-0.046306256
118	0xbd2f5522	-0.0428058
119	0x3d9e969c	0.0774357
120	0xbccc8e9a	-0.024970341
121	0xbcae84ae	-0.021303501
122	0x3c648660	0.013948053
123	0x3a8118b7	0.0009849285
124	0x3cc7a075	0.024368504
125	0x3cfd0f3c	0.030891053
126	0xbceb5662	-0.028727714
127	0xbc2bddbd	-0.010489878
128	0xbbcc1976	-0.006228621
129	0x3d9e6061	0.077332266
130	0x3cfaf0ab	0.030632338
131	0x3cab1dad	0.020888174
132	0xbd00b4e1	-0.0314225
133	0x3cc19b10	0.02363351
134	0xbd25dd54	-0.040494278
135	0xbcc7c676	-0.024386626
136	0x3d9b5d4e	0.07586156
137	0xbba99780	-0.005175531
138	0xbc5e0a74	-0.013552297
139	0x3d9b983d	0.075973965
140	0xbcc6608f	-0.024215965
141	0x3d3cff40	0.046141863
142	0x3d907ff1	0.07055653
143	0xbdb4d5ca	-0.088298395
144	0xbca82ed7	-0.020530147
145	0xbc9b22ec	-0.01893755
146	0xbbd5c975	-0.0065242597
147	0x3cded0a9	0.027199106
148	0xbd3f765f	-0.046743747
149	0x378f04cb	1.704916e-05
150	0xbcf5c936	-0.030003171
151	0x3be43cc4	0.0069652516
152	0xbc73edd1	-0.014888243
153	0x3d0cf0a5	0.034409184
154	0x3dabc7cb	0.08387717
155	0xbc3a3e36	-0.011367371
156	0xbd6de5d2	-0.0580805
157	0x3d36f747	0.044669416
158	0xbcc5f203	-0.024163252
159	0x3c91a709	0.017779844
160	0x3c6b8fd1	0.01437755
161	0x3b9580c9	0.0045624715
162	0xbd2b74fc	-0.041859612
163	0xbc931049	-0.017952101
164	0x3d5cf2bb	0.053942423
165	0x3d863435	0.065529265
166	0xbd260fc2	-0.04054237
167	0x3c7dac0a	0.015482912
168	0xbd1c3e86	-0.038145564
169	0xbc2545e0	-0.01008746
170	0x3cfef6d4	0.031123556
171	0xbbd41f91	-0.0064734896
172	0xbd161192	-0.03663785
173	0xbc724574	-0.014787067
174	0xbaf9f67d	-0.0019070652
175	0x387ec908	6.0745544e-05
176	0xbd538039	-0.051635955
177	0x3d708883	0.058723938
178	0x3c6e2e27	0.014537371
179	0xbd1205fb	-0.035650235
180	0xbcc5bd14	-0.024138011
181	0x399180bb	0.00027752467
182	0xbd23817e	-0.039918415
183	0xbc1eaead	-0.009685201
184	0x3ce18864	0.027530856
185	0x3baa555b	0.0051981634
186	0xbd0061ca	-0.03134326
187	0x3bed85d2	0.0072486186
188	0x3aac2433	0.0013133347
189	0x3d666e20	0.056257367
190	0xbc84770c	-0.016170047
191	0xbd58bde0	-0.052915454
192	0xbbbfc6f8	-0.0058525763
193	0x3b80b274	0.0039275233
194	0xbd526072	-0.05136151
195	0x3a9a8f0c	0.0011791899
196	0xbc206231	-0.009789036
197	0xbc3943bd	-0.011307654
198	0xbba0e59a	-0.004910183
199	0xbd176f03	-0.036971103
200	0x3cd62e37	0.026145084
201	0xbc05029f	-0.008118301
202	0x3da8f714	0.082502514
203	0x3d8cef34	0.06881562
204	0xbba99ee7	-0.0051764133
205	0x3cb1ab83	0.021688228
206	0x3cf76e6b	0.030204019
207	0x3b6a0551	0.0035708735
208	0x3c5bb09b	0.013408805
209	0xbc4cee20	-0.012507945
210	0x3d81d9f6	0.06340401
211	0x3cbc7152	0.023003254
212	0xbc7706e4	-0.015077326
213	0x3d0d365c	0.03447567
214	0xbc4a9369	-0.012364247
215	0x3c56f070	0.013118848
216	0xba823154	-0.0009932914
217	0x3d8f7bcc	0.07006034
218	0xbc2ac0ac	-0.010421913
219	0xbcc80c12	-0.024419818
220	0x3d63cc6d	0.055614877
221	0x3b11ba4f	0.0022236293
222	0x3d49e773	0.049292993
223	0x3d608e79	0.054823373
224	0xbbc9fbe1	-0.0061640595
225	0xbd479972	-0.04873032
226	0x3bcf0643	0.006317885
227	0xbba7d605	-0.0051219487
228	0xbc81177e	-0.015758272
229	0xbba3019a	-0.004974556
230	0xbce07682	-0.027400259
231	0x3d0b1c01	0.033962253
232	0x3d83d01c	0.06436178
233	0xbd1d7dfa	-0.03845022
234	0xbcb48099	-0.022033976
235	0xbd55e4b6	-0.05222007
236	0xbd47d5d9	-0.048787925
237	0xbd204bb3	-0.039134692
238	0xbd352a70	-0.044229925
239	0xbb05cc18	-0.0020415839
240	0x3be09e58	0.0068548135
241	0x39f1e6b8	0.00046139
242	0x3d4c0463	0.04980887
243	0x3c757ca6	0.014983332
244	0xbd8c5d9c	-0.06853792
245	0x3d5bcf6a	0.053664602
246	0xbd7918bb	-0.0608146
247	0x3d121eac	0.035673782
248	0xbae1c051	-0.0017223452
249	0xbbbf2c6e	-0.005834154
250	0xbd40787a	-0.046989895
251	0xbccdfcda	-0.025144983
252	0x3cbea3e0	0.023271501
253	0x3c2ac802	0.010423662
254	0xbd53862d	-0.051641632
255	0x3ceb8b08	0.028752819

qa_outputs.bias f4 [2]
0	0xbeb81900	-0.35956573
1	0xbec7bcf6	-0.39011353
