adapter_weights/adapter_qa_en-ru_mbert_15/pytorch_model_head.bin (torch, 7143 bytes, 2 tensors)

qa_outputs.weight f4 [2, 768]
0	0x3d1c89df	0.03821742
1	0xbce0fbb7	-0.027463777
2	0x3d02baa8	0.03191629
3	0xbcd9adb0	-0.026572078
4	0xbc16f14b	-0.009212802
5	0xbd0b09d3	-0.033944916
6	0xbd1a67f6	-0.0376968
7	0xbcbaa077	-0.022781594
8	0x3d5989a8	0.053109795
9	0x3cce240d	0.025163675
10	0x3c76d893	0.015066284
11	0xbc8940c3	-0.016754514
12	0x3bd1802b	0.0063934526
13	0xbce47a61	-0.027890386
14	0xbd2a0a5a	-0.04151378
15	0x39118a13	0.00013879714
16	0x3c9436b6	0.018092494
17	0xbd29877c	-0.041388974
18	0xbd41a5a2	-0.0472771
19	0x3d880bb7	0.066428594
20	0x3cee1cd2	0.029066477
21	0xbcc2b751	-0.023769053
22	0x3d3c0496	0.04590281
23	0xbc451f49	-0.012031385
24	0x3cfc5946	0.030804288
25	0xbc08cd05	-0.008349662
26	0x3bbda407	0.005787376
27	0xbad6bb05	-0.001638264
28	0x3d0018e8	0.031273752
29	0xbd39547c	-0.045246586
30	0x3a9b4d24	0.0011848551
31	0x3c947063	0.018119996
32	0xbcb84402	-0.022493366
33	0xbc9b729f	-0.018975554
34	0x3c47ecd5	0.012202461
35	0x3d922871	0.0713662
36	0x3ad0a878	0.0015919348
37	0xbd6eca1f	-0.058298226
38	0x3c9be315	0.01902918
39	0x3a30c952	0.0006743866
40	0xbd23e34c	-0.04001169
41	0xbd9f2aed	-0.07771859
42	0x3d3de30d	0.04635911
43	0x3cac2366	0.021012973
44	0xbcbd5042	-0.023109559
45	0x3d169016	0.036758505
46	0x3c938a21	0.018010201
47	0x3c4a15fd	0.012334344
48	0xbbc81541	-0.0061060493
49	0x3ca870d6	0.020561617
50	0xbd863064	-0.065521985
51	0xbbed37a2	-0.007239298
52	0x3ced41dc	0.028962068
53	0x3d24b616	0.040212713
54	0x3d1cf9d7	0.038324203
55	0x3c8c4a2e	0.017125215
56	0x3c95b10f	0.018272905
57	0xbccd23d1	-0.025041493
58	0x3d449c83	0.048000824
59	0xbbce6076	-0.00629812
60	0x3c648862	0.013948532
61	0xbd9dfa47	-0.07713752
62	0xbc137b85	-0.009001617
63	0xbd29a3d0	-0.04141599
64	0x3cd39ec9	0.02583255
65	0xbc972ff5	-0.018455485
66	0xbd01d212	-0.03169448
67	0x3c36d8b0	0.011160061
68	0x3c8df615	0.017329255
69	0x3ca306d0	0.01990071
70	0xbd80d462	-0.06290509
71	0x3beb7bb8	0.0071863793
72	0xbc32b008	-0.010906227
73	0xbcadc959	-0.021214174
74	0x3d9b3533	0.07578506
75	0xbc8a4984	-0.016880758
76	0xbcd8aa9f	-0.026448546
77	0xbda3ba9c	-0.07994577
78	0x3c2e2f20	0.010631353
79	0xbc488572	-0.012238847
80	0xbc858484	-0.01629854
81	0x3d8c275d	0.068434455
82	0xbc2718aa	-0.010198751
83	0x3ca9f8f9	0.020748602
84	0xb8a51690	-7.872016e-05
85	0xbd7a5ebb	-0.0611255
86	0x3cffa2fd	0.031205649
87	0xbd456ce8	-0.048199564
88	0xbb01a682	-0.0019783084
89	0x3d8a1440	0.06742144
90	0xbcfbe91e	-0.030750807
91	0xbcade1fc	-0.021225922
92	0xbc861409	-0.016366975
93	0xbcdd4831	-0.027011963
94	0x3c4066dd	0.0117432745
95	0xbd4ecaaf	-0.050486263
96	0xbc99cb6c	-0.018773757
97	0xb9ed521a	-0.00045265333
98	0x3d83a751	0.064283974
99	0xbc887d40	-0.016661286
100	0x3c8c0306	0.017091285
101	0xbc68fffa	-0.014221186
102	0x3ca34a9d	0.01993304
103	0x3d1da0fe	0.038483612
104	0xbc9b58b9	-0.018963205
105	0x3cbf8136	0.023377042
106	0xbc8d0d9e	-0.017218407
107	0x3d10434b	0.035220426
108	0x3cdf68b3	0.027271604
109	0x3d62b7f7	0.055351224
110	0x3c7fb4e0	0.015607089
111	0xbd39b34d	-0.04533701
112	0x3d4574e1	0.048207168
113	0xbc82dfbf	-0.015975831
114	0x3d22363a	0.039602496
115	0xbd092947	-0.03348663
116	0x3cc42ec7	0.023948086
117	0x3c637323	0.013882431
118	0x3daec0df	0.08532881
119	0xbd12c6ad	-0.035834003
120	0xbd1ee9e4	-0.038797274
121	0x3c69d61e	0.014272241
122	0xbd26acc2	-0.0406921
123	0x3cfb6e71	0.030692311
124	0x3c056b0f	0.008143201
125	0xbd4eb9f5	-0.05047031
126	0xbcedc837	-0.029026134
127	0x3c0e5a64	0.008688543
128	0x3c488f80	0.012241244
129	0x3b2359af	0.0024925282
130	0xbdaeb842	-0.08531238
131	0xbc9c098d	-0.019047523
132	0x3b72740b	0.0036995437
133	0xb97d3320	-0.00024147006
134	0xbbe05f0a	-0.006847267
135	0x3d82b8cc	0.063829035
136	0x3d6ffb36	0.058589183
137	0xbb96faea	-0.004607548
138	0x3d224bcc	0.039623067
139	0x3d0aee7f	0.033918854
140	0xbccf9014	-0.025337256
141	0xbce408d0	-0.027836233
142	0xbcd82a15	-0.026387254
143	0x3d5ae5f2	0.05344195
144	0xbd00f14c	-0.03148012
145	0x3ce2a542	0.027666692
146	0xbc88eb0a	-0.016713638
147	0xbc2ad55e	-0.010426847
148	0xbc290793	-0.010316747
149	0x3cf3b5df	0.029749809
150	0x3c75f9a2	0.01501313
151	0xbcb91c8f	-0.022596626
152	0x3d4d5143	0.050126325
153	0xbc88da38	-0.016705617
154	0xbb434aa1	-0.002979912
155	0xb9f965ca	-0.0004756882
156	0x3c9d08e5	0.01916928
157	0xbd39debc	-0.04537843
158	0xbb45fef4	-0.0030211778
159	0x3b9e5177	0.0048314887
160	0xbd8be25d	-0.06830285
161	0x3d36383a	0.044487216
162	0xbcc69d11	-0.024244817
163	0x38ed1612	0.000113051516
164	0xbc102896	-0.008798739
165	0xbd3cc86d	-0.04608958
166	0xbc90ea71	-0.017689915
167	0x37dbc906	2.6200443e-05
168	0xbc6627c5	-0.014047568
169	0x3d2cb23f	0.042162176
170	0x3d23250c	0.039830253
171	0xbc0edeea	-0.008720139
172	0xbb766811	-0.003759865
173	0x3c6faff1	0.01462935
174	0xbccaca3d	-0.024754638
175	0xbd33935f	-0.043841716
176	0xbd752e59	-0.059858654
177	0x3d4b6bdc	0.04966341
178	0xbc54c4ea	-0.012986401
179	0xbd1860ab	-0.037201565
180	0xbbb12248	-0.005405698
181	0x3d88f42c	0.06687197
182	0xbc787ad4	-0.015166003
183	0xbaa6f944	-0.0012739082
184	0xbd54b595	-0.051930983
185	0xbb1343f3	-0.002247092
186	0x3dc800be	0.097657666
187	0xbc97cee3	-0.018531268
188	0xbda64cc1	-0.081201084
189	0x3c21ca86	0.0098749455
190	0x3ccd7ee2	0.025084917
191	0x3c1f0d48	0.009707756
192	0x3c98788d	0.01861217
193	0x3b94d9c4	0.0045425612
194	0xbd59d0bb	-0.053177577
195	0x3d50f19d	0.05101167
196	0xbcb5af9a	-0.02217846
197	0x3d39be0f	0.04534727
198	0x3d521e91	0.05129868
199	0x3d2131e3	0.039354216
200	0x3d78bdaa	0.060727753
201	0xbd1b61d5	-0.037935097
202	0xbd2a3f0d	-0.041564036
203	0x3c12229e	0.008919386
204	0x3d9370ef	0.07199275
205	0xbae7a54e	-0.0017673166
206	0x3cc6cf62	0.02426881
207	0x3c3ab84a	0.011396477
208	0xbd803512	-0.06260122
209	0x3d2de4f9	0.042454693
210	0x3d74ba4d	0.059747983
211	0xbcc98ba2	-0.024602715
212	0x3c7935fb	0.015210624
213	0x3d0204e1	0.031742934
214	0xbce94929	-0.028477268
215	0xbc4405f6	-0.011964312
216	0xbd1d6975	-0.03843065
217	0xbd8c92bc	-0.06863925
218	0x3d57699c	0.05259095
219	0x3d537093	0.05162103
220	0xbc9a63aa	-0.018846352
221	0xbc984c2e	-0.018591013
222	0xbd0686fd	-0.03284358
223	0xbbe45402	-0.0069680223
224	0xbd598bef	-0.053111967
225	0x3c8ba0c9	0.017044442
226	0x3c096a05	0.008387093
227	0xbbf851fa	-0.0075781317
228	0xbc1d2414	-0.009591121
229	0xbd01da2c	-0.031702206
230	0xbcf40792	-0.029788766
231	0xbb0d8d2f	-0.0021599045
232	0x3d452540	0.048131227
233	0xbd568257	-0.052370396
234	0xbbd26499	-0.0064206836
235	0x3c7b02c0	0.01532048
236	0xbd8343bf	-0.06409406
237	0x3d85dc92	0.06536211
238	0x3cd759f8	0.026288018
239	0xbceebf4f	-0.029143957
240	0x3b660927	0.003510067
241	0x3be274ff	0.0069109197
242	0xbb9d561a	-0.004801524
243	0x3c5e8f90	0.013584033
244	0x3cd14fe5	0.025550792
245	0x3d1742e0	0.03692901
246	0xbb81ed4a	-0.0039650546
247	0x3d618d64	0.05506648
248	0x3d32c6b4	0.04364653
249	0xbba11df5	-0.0049169012
250	0xbcd1a66f	-0.025592057
251	0xbc53890a	-0.012911091
252	0x38ce2c93	9.831148e-05
253	0xbc333086	-0.010936862
254	0xbceefb60	-0.0291726
255	0x3a0e858c	0.000543677

qa_outputs.bias f4 [2]
0	0xbee022b5	-0.4377648
1	0xbee2be9d	-0.4428605
