adapter_weights/adapter_qa_en-de_xlm_15/pytorch_model_head.bin (torch, 7143 bytes, 2 tensors)

qa_outputs.weight f4 [2, 768]
0.0115979705 0.006991269 -0.0036065555 -0.03606111 0.008795902 -0.040810477 0.025549423 0.03424292
-0.021848384 0.06369459 0.012518645 -0.08144969 -0.017675804 0.050670374 0.07258841 0.044232152
-0.06251738 -0.032772977 0.029891625 0.021342184 -0.038103618 -0.018113079 -0.05525384 0.0041232877
-0.006375506 -0.008853712 -0.057063162 -0.01806018 0.023578934 0.044492092 -0.022453383 0.064279616
-0.053768232 -0.059235428 -0.07945107 0.029098254 0.046165254 -0.059481323 -0.060417727 0.009356133
0.044032644 -0.024513066 -0.03598248 -0.026995102 0.034216564 0.0221579 0.054592744 0.068629794
0.021378674 0.006641007 0.008639463 -0.030660704 -0.087458216 -0.021152787 0.0043506324 -0.0025028042
-0.07429358 -0.018845685 -0.013692999 0.021965673 0.06195192 -0.021346517 0.059507642 0.049555704
0.052250914 0.024591865 0.049770966 -0.011361552 0.0029661737 0.04620136 0.011825304 -0.020342
-0.020368649 -0.00914104 0.01700092 -0.0052145147 -0.06941287 0.014199225 0.062765405 -0.038255826
-0.010292299 -0.044712506 0.06791475 -0.010936199 -0.025379788 0.0043465355 0.035452098 -0.0847197
0.0070436965 0.05371426 -0.02852991 0.0027841702 -0.008451394 -0.019278469 -0.033655524 0.06430758
-0.016467834 0.0014516815 -0.04975051 -0.0012731586 -0.0038739014 -0.05109617 0.0491513 -0.053077422
0.00031325963 -0.02575494 0.03194293 0.030927574 0.008132544 -0.056104653 0.051811177 0.019139938
-0.022999257 0.05066054 0.021014351 0.0098117 0.0141256545 -0.049830616 -0.045766395 0.0790959
-0.023818243 -0.023397844 0.015028851 0.0018521086 0.025805924 0.030541152 -0.033431113 -0.014399696
-0.009329095 0.08136944 0.036784917 0.019783417 -0.030982118 0.026795473 -0.041595124 -0.024523254
0.08049538 -0.0051717646 -0.013762738 0.075019985 -0.024874289 0.04509762 0.07012279 -0.090724185
-0.018214827 -0.018085413 -0.004229264 0.0281195 -0.047352865 -0.0021379394 -0.030303717 0.0062205954
-0.0117946565 0.03294664 0.08367229 -0.0124842 -0.057307094 0.039365042 -0.022802047 0.022752477
0.012345763 0.0078135915 -0.03976184 -0.019688522 0.05376953 0.06719281 -0.041862197 0.020297626
-0.03373634 -0.011721366 0.029854205 -0.011254088 -0.040464636 -0.015101714 0.0027127282 -0.00202955
-0.051044513 0.055708356 0.017826952 -0.035558093 -0.025303131 -0.0002326387 -0.03711377 -0.012480147
0.029366763 0.0072870967 -0.030464752 0.009265222 0.00071692746 0.05387365 -0.018834772 -0.054003317
-0.005051608 0.005901046 -0.04998019 0.0014284386 -0.0032155297 -0.004820922 -0.004269319 -0.03558225
0.024494465 -0.009415011 0.08290869 0.0694968 -0.0035191176 0.021562988 0.028569859 0.0005353588
0.012723636 -0.013336696 0.06174832 0.025167124 -0.014370393 0.03422328 -0.009693072 0.013300015
0.0004372132 0.07239094 -0.009170094 -0.022075018 0.054512497 0.0017723019 0.04658067 0.055621058
-0.009867563 -0.04362098 0.007758912 -0.0074874074 -0.019205786 -0.009089149 -0.03680042 0.03529227
0.06507939 -0.03437476 -0.018032586 -0.049228873 -0.044869777 -0.039208278 -0.042526543 -0.0024181711
0.010307788 -0.001756344 0.048160892 0.013589114 -0.06833314 0.053900562 -0.060378045 0.034333937
0.0017398135 -0.008069951 -0.04999694 -0.022104982 0.024863087 0.010181538 -0.04827832 0.025934597
00000000: 6a05 3e3c 0417 e53b f65b 6cbb d1b4 13bd
00000010: b01c 103c e328 27bd 064d d13c 4e42 0c3d
00000020: 62fb b2bc 4f72 823d 011b 4d3c 18cf a6bd
00000030: d9cc 90bc bd8b 4f3d 3ba9 943d c62c 353d
00000040: 1d09 80bd f53c 06bd 48df f43c ced5 ae3c
00000050: 8a12 1cbd e161 94bc da51 62bd a51c 873b
00000060: 9fe9 d0bb 290f 11bc 10bb 69bd f1f2 93bc
00000070: 9c28 c13c 573d 363d 28f0 b7bc 08a5 833d
00000080: 143c 5cbd d9a0 72bd 3eb7 a2bd 765f ee3c
00000090: c717 3d3d b0a2 73bd 9478 77bd 774a 193c
000000a0: 935b 343d a0cf c8bc 5d62 13bd d524 ddbc
000000b0: ab26 0c3d 7c84 b53c a49c 5f3d c78d 8c3d
000000c0: 5422 af3c ce9c d93b 898c 0d3c 282c fbbc
000000d0: 4b1d b3bd 9c48 adbc c08f 8e3b 1606 24bb
000000e0: 3c27 98bd 4462 9abc 9a58 60bc 5bf1 b33c
000000f0: 4cc1 7d3d e4de aebc 49be 733d ecfa 4a3d
00000100: 0e05 563d e174 c93c a4dc 4b3d ce25 3abc
00000110: 2364 423b a33d 3d3d ebbe 413c 44a4 a6bc
00000120: 27dc a6bc 4dc4 15bc 8345 8b3c 85de aabb
00000130: 5628 8ebd dea3 683c 268b 803d 24b2 1cbd
00000140: 08a1 28bc 7624 37bd e316 8b3d be2d 33bc
00000150: 46e9 cfbc 626d 8e3b 3836 113d 8681 adbd
00000160: cfce e63b 7c03 5c3d 8fb7 e9bc a076 363b
00000170: b777 0abc e1ed 9dbc 60da 09bd b1b3 833d
00000180: 8de7 86bc 5946 be3a 31c7 4bbd 1de0 a6ba
00000190: 48e1 7dbb 384a 51bd e052 493d b667 59bd
000001a0: ff3c a439 06fc d2bc 97d6 023d d35b fd3c
000001b0: 5d3e 053c fecd 65bd f537 543d 5ccb 9c3c
000001c0: f068 bcbc 6d81 4f3d 4a26 ac3c 41c1 203c
000001d0: 4a6f 673c 301b 4cbd 8b75 3bbd 08fd a13d
000001e0: 7a1e c3bc d6ac bfbc 923b 763c 74c2 f23a
000001f0: f266 d33c 7031 fa3c 10ef 08bd b4ec 6bbc
00000200: 0fd9 18bc 05a5 a63d c8ab 163d d510 a23c
00000210: 36ce fdbc 2e82 db3c a65f 2abd fee4 c8bc
00000220: c3da a43d e877 a9bb 1b7d 61bc 14a4 993d
00000230: 2ac5 cbbc 48b8 383d 8a9c 8f3d 9acd b9bd
00000240: 4337 95bc dc27 94bc a395 8abb de5a e63c
00000250: 14f5 41bd ac1c 0cbb 803f f8bc 23d6 cb3b
00000260: 603e 41bc 0ef3 063d 615c ab3d 888a 4cbc
00000270: d8ba 6abd 3d3d 213d 5ccb babc 6763 ba3c
00000280: e245 4a3c 9404 003c 50dd 22bd d349 a1bc
00000290: 703d 5c3d 629c 893d b277 2bbd 3547 a63c
000002a0: 1e2f 0abd f90a 40bc ce90 f43c 1163 38bc
000002b0: 3fbe 25bd 2e6d 77bc 07c8 313b 3302 05bb
000002c0: 0d14 51bd 722e 643d d409 923c 5da5 11bd
000002d0: 8348 cfbc 7af0 73b9 9c04 18bd 8879 4cbc
000002e0: 9192 f03c 99c8 ee3b 3791 f9bc 28cd 173c
000002f0: 30f0 3b3a 9eaa 5c3d 614b 9abc 9532 5dbd
00000300: f687 a5bb 905d c13b 07b8 4cbd 723a bb3a
00000310: a3bb 52bb d3f8 9dbb a5e5 8bbb b2be 11bd
00000320: 9ea8 c83c 6b41 1abc 08cc a93d 5754 8e3d
00000330: ffa0 66bb dda4 b03c 560b ea3c 5257 0c3a
00000340: cc76 503c 2882 5abc ceeb 7c3d 492b ce3c
00000350: cc71 6bbc b62d 0c3d b1cf 1ebc 4ee8 593c
00000360: c339 e539 b341 943d 293e 16bc abd6 b4bc
00000370: 7f48 5f3d 954c e83a 5fcb 3e3d e8d2 633d
00000380: 8fab 21bc eaab 32bd 793e fe3b ed58 f5bb
00000390: 7455 9dbc a7ea 14bc 0abc 16bd a18e 103d
000003a0: 5848 853d 8ccc 0cbd 13b9 93bc 37a4 49bd
000003b0: 5fc9 37bd dc98 20bd 5030 2ebd 2e7a 1ebb
000003c0: ffe1 283c 2035 e6ba 5b44 453d e0a4 5e3c
000003d0: 3ff2 8bbd d6c6 5c3d f84e 77bd bea1 0c3d
000003e0: 740a e43a d437 04bc 97c9 4cbd 8215 b5bc
000003f0: acad cb3c 77d0 263c 7dbf 45bd cb74 d43c

qa_outputs.bias f4 [2]
-0.36033532 -0.39070988
00000000: df7d b8be 200b c8be
